6_25_2024_parenthesization_pytorch/models/linear_model.pt (torch, 1846 bytes, 2 tensors)

fc.weight f4 [2, 36]
000000 fa 6f 8e bf 59 3c c1 3f 05 a6 c0 be 9f 0e ae 3e
       -1.1127923 1.5096542 -0.37626663 0.3399553
000010 f8 71 a2 be 30 3d 0f 3f ab 11 a4 bd 83 84 8b 3e
       -0.31727576 0.5595274 -0.080111824 0.27249536
000020 43 ca 5d bd e8 44 e6 3e 14 f0 9d bd ee 82 2e 3e
       -0.05414797 0.44974446 -0.07711807 0.17042133
000030 89 42 86 3d 96 91 46 3e 26 95 43 3e dd 02 3d 3e
       0.06555659 0.19391474 0.19099864 0.18458124
000040 c2 ed 95 3c 2a 8a a2 3d 37 54 4e 3e b5 e1 28 bd
       0.018301848 0.07936509 0.20149313 -0.041230876
000050 b6 e4 2f 3e c2 00 d9 3d 12 25 a1 3e 2e 8a f3 3c
       0.1717709 0.10595848 0.31473595 0.029728975
000060 68 a7 f9 3d 6d a1 f7 bc 40 a7 66 3e b5 bf 86 3c
       0.12190133 -0.030228341 0.22524738 0.016448835
000070 48 c0 3d 3e 88 c7 ba bd cd aa 0d 3f 08 8b 82 be
       0.1853038 -0.09120089 0.55338746 -0.25496697
000080 ba 28 04 3f 6b 6c e0 bd 44 d2 bf 3f cc 55 a5 bf
       0.51624644 -0.10958179 1.4986043 -1.2916808
000090 c4 00 a7 3f 68 76 a8 bf 35 8a 01 3e 49 bc 25 bf
       1.3047109 -1.3161135 0.12650378 -0.64740425
0000a0 e6 d1 35 3e dd 8d c9 be 0c 46 6e 3e 3d e5 d3 be
       0.17755851 -0.39366046 0.23268908 -0.41385832
0000b0 1a 7f ce 3d 49 08 a8 be 51 68 49 bc fa ee 6f be
       0.100828364 -0.3281882 -0.012292937 -0.23431006
0000c0 30 e9 0e 3e 24 5a 56 be 21 f9 71 bd 0f 3a aa be
       0.13956141 -0.20932823 -0.05907548 -0.3324742
0000d0 d8 11 16 be ce e0 9a be e6 74 3d be 1f a0 52 be
       -0.14655244 -0.30249637 -0.18501624 -0.20568894
0000e0 fd 04 6c be c5 ec 5e be 11 71 34 be e6 85 29 bd
       -0.23048778 -0.21770008 -0.17621256 -0.04138746
0000f0 1b 45 8b be 6e a9 d5 3a ca 9b d5 be 5e 3c 2b 3e
       -0.2720116 0.0016301104 -0.4172042 0.16722247
000100 45 d6 d5 be 95 c5 12 3e 34 53 a2 be bf 0b 7e 3e
       -0.41765037 0.14333184 -0.31704104 0.24809168
000110 66 b3 f2 be ec 2f 9a 3e 1c d6 b8 bf 6d 5d 96 3f
       -0.47402495 0.30114686 -1.4440341 1.1747261

fc.bias f4 [2]
000000 22 a3 42 3e 94 eb 95 be
       0.19007543 -0.29281294
