6_27_2024_permutation_statistics/models/stat4_5.pt (torch, 1752 bytes, 2 tensors)

layers.0.weight f4 [2, 25]
00000000: 13a6 543f 6c2f aebd bb09 d6bd 35d4 143c
00000010: b5c7 91be 0078 50be 6b3a 413f ede5 2abe
00000020: 50ff 78be 1086 03be 8fea debe d183 5abe
00000030: bba6 593f ed4d 60bb 9ce0 11be bf5b 3fbe
00000040: 83c2 d4be b118 d8bd b872 5d3f 00e7 81be
00000050: e86f b4be 3a1a 7dbe c971 53be 1adf dfbe
00000060: e4da 023f 95b2 49bf 06b1 1b3e 6766 333e
00000070: be5a 863e f406 a53d 3f64 2d3e b459 60bf
00000080: cbc6 573e 38d9 cfbc c24f 4f3e 9447 a93e
00000090: 4b01 e63d ea04 22bf 343d 363e f6bc 9abd
000000a0: 977d 813d 6150 fd3d dd54 553e af35 6bbf
000000b0: f2b1 293e 1eb4 c53d e3d5 b33d 903c 653e
000000c0: f281 0a3e dbed 33bf
0.8306591 -0.08505139 -0.10451075 0.009083797 -0.28472677 -0.20358276 0.75479764 -0.16689272
-0.24316144 -0.1284411 -0.4353833 -0.21339346 0.85020036 -0.0034226135 -0.14245838 -0.18687342
-0.4155465 -0.105515845 0.8650317 -0.25371552 -0.35241628 -0.24717036 -0.20648874 -0.437249
0.5111525 -0.7878812 0.15204248 0.17519532 0.26241106 0.08057967 0.16932772 -0.87636876
0.21071927 -0.025372133 0.20245269 0.33062422 0.11230715 -0.6328875 0.17796785 -0.07555573
0.063227825 0.12368847 0.20833154 -0.9187879 0.16571787 0.09653495 0.0878103 0.22386384
0.13526133 -0.70284814

layers.0.bias f4 [2]
00000000: 75d2 8c3e b61c 95be
0.27504316 -0.29123467
