6_27_2024_permutation_statistics/models/stat1_5.pt (torch, 1752 bytes, 2 tensors)

layers.0.weight f4 [2, 25]
00000000: 839a e83e b3dc 733c 3616 6e3d 0186 703d
00000010: 7996 31be b0ed d13e 6832 f3bc 5183 993c
00000020: bb06 5f3c 6582 303d 12a1 ff3e e7a7 39bd
00000030: 14c7 b03d df33 99bd 8d05 b5bd a488 ee3e
00000040: 5c80 10be 1dbc 1fbc d62f 793c f04f 3d3d
00000050: a4a7 bdbf 6c92 f53e d8db ae3e 4098 ce3e
00000060: 4eb4 c33e e253 c0be 1738 223e 943b 333e
00000070: a0a8 7e3d 4eb5 9abd 2f34 23bf 5ac6 d63b
00000080: ae82 183e dffc 6d3c 0973 d13c 2ee3 08bf
00000090: 5160 743d 02d3 683e fcbb 6e3e 6b3f 923d
000000a0: 04d8 f4be af76 993c 4bb6 0cbe 16fe 353e
000000b0: 8cae 1c3d 924c df3f a9aa 0ebf e3be 0dbf
000000c0: 21e2 d7be 9f3b eebe
0.45430383 0.014884162 0.05812665 0.058721546 -0.17342557 0.41001654 -0.029687122 0.018739374
0.0136124445 0.043093104 0.49927574 -0.04532614 0.08631721 -0.07480597 -0.08838949 0.46588624
-0.14111465 -0.00974944 0.015209159 0.046218812 -1.4816785 0.47963274 0.34152102 0.40350533
0.382235 -0.37563998 0.15841709 0.17503196 0.062172532 -0.075541124 -0.637515 0.006554407
0.148936 0.014525621 0.025567548 -0.5347165 0.059662167 0.22736743 0.23313898 0.07141002
-0.47821057 0.01873335 -0.13741414 0.17772707 0.0382524 1.7445242 -0.55729157 -0.55369395
-0.4216471 -0.46529862

layers.0.bias f4 [2]
00000000: c391 d23e 6de2 d7be
0.41126832 -0.42164937
