6_27_2024_permutation_statistics/models/stat5_7.pt (torch, 8144 bytes, 4 tensors)

layers.0.weight f4 [21, 49]
0	0x3df64f94	0.12026897
1	0xbea9bc90	-0.33151674
2	0xbd606158	-0.054780334
3	0x3e928150	0.28614283
4	0x3e31b151	0.17352797
5	0xbea3a947	-0.31965086
6	0xbe9f278c	-0.3108486
7	0xbe1af6ed	-0.15133257
8	0x3eb5f028	0.35534787
9	0xbe6afaef	-0.22947286
10	0xbe2006ed	-0.15627642
11	0xbe9855bf	-0.2975292
12	0x3ebde4e8	0.37088704
13	0xbe6ea900	-0.23306656
14	0x3aae7f3d	0.0013313066
15	0xbe4ea908	-0.20181668
16	0x3d8ea0a4	0.069642335
17	0xbe840892	-0.2578779
18	0xbe0ec457	-0.13942085
19	0xbe62b1a1	-0.22138073
20	0x3eac9b7d	0.33712378
21	0x3ca35847	0.019939555
22	0x3a2a9e09	0.00065085344
23	0xbe0430e3	-0.12909274
24	0x3ed60632	0.41801602
25	0xbe70adf9	-0.23503865
26	0x38fc12c6	0.00012019793
27	0xbdf3176c	-0.11869702
28	0x3db59014	0.08865371
29	0xbf046621	-0.51718336
30	0x3e763bff	0.24046324
31	0xbec06148	-0.3757422
32	0xbe151f48	-0.14562714
33	0x3eeeb2f5	0.46620908
34	0xbe17089c	-0.14749378
35	0x3e753d79	0.23949231
36	0x3ecc11b3	0.39857253
37	0xbe973659	-0.2953365
38	0x3c237a84	0.0099779405
39	0x3e9e6ee7	0.30943987
40	0xbee9004a	-0.45508033
41	0xbd845e62	-0.064633146
42	0xbeed3baa	-0.46334583
43	0x3e39902f	0.18121408
44	0x3e80a919	0.2512901
45	0xbdb43c06	-0.08800511
46	0xbdcd5c5f	-0.10027384
47	0x3e0e12f1	0.13874413
48	0xbdc7e7a2	-0.09760977
49	0xbbd0a21e	-0.006366982
50	0xbdde7bbd	-0.10863445
51	0x3f047b07	0.51750225
52	0x3f806a5d	1.003246
53	0x3f99483f	1.1975173
54	0x3ebcb948	0.36860108
55	0xbf449eb7	-0.7680468
56	0xbf02b8f7	-0.51063484
57	0xbd8a5344	-0.06754163
58	0x3f376b1f	0.7164783
59	0x3f5ae737	0.85509056
60	0x3efa5b9d	0.4889802
61	0xbd21b98e	-0.0394836
62	0x3f1484f1	0.5801535
63	0x3eb525cc	0.353804
64	0x3f387ade	0.7206248
65	0xbc720af4	-0.014773119
66	0xbe83f5be	-0.25773424
67	0xbefad0d6	-0.48987454
68	0x3f440030	0.76562786
69	0x3f9def96	1.2338741
70	0x3f940659	1.1564437
71	0x3f38e49c	0.7222383
72	0xbe1026ef	-0.14077352
73	0xbfb4cbbc	-1.4124675
74	0x3e1007b7	0.14065443
75	0x3f27c09d	0.6552828
76	0x3fa39a58	1.2781477
77	0x3f975f08	1.1825876
78	0x3f140a35	0.57828075
79	0xbf2607b9	-0.64855534
80	0xbd6f15cc	-0.058370396
81	0xbecc936b	-0.3995622
82	0x3f2a03a5	0.6641181
83	0x3f0134d0	0.5047121
84	0x3ef150e8	0.4713204
85	0x3d99dd34	0.07512894
86	0x3f21fc6a	0.6327578
87	0x3f1f8254	0.6230824
88	0x3ec61179	0.38685206
89	0x3e539152	0.20660904
90	0xbeaf1ff6	-0.34204072
91	0xbf438fc6	-0.76391256
92	0x3eb899a2	0.36054713
93	0x3f8b6fb2	1.0893462
94	0x3f88d3b1	1.0689603
95	0x3f231235	0.63699657
96	0xbef20bfd	-0.4727477
97	0xbdb42aa4	-0.087971956
98	0x3edee55f	0.4353437
99	0xbdb99f31	-0.090635665
100	0x3d7f62cd	0.062350083
101	0x3d75d8c4	0.060021177
102	0xbe1249d8	-0.14285982
103	0xbe863e74	-0.26219523
104	0xbc356a3f	-0.011072694
105	0xbe9cef66	-0.30651397
106	0x3f7b3999	0.9813476
107	0xbeba8b0e	-0.36434215
108	0x3ec2964c	0.38005292
109	0xbeb046ba	-0.3442896
110	0xbe3f5f26	-0.1868864
111	0xbd93d620	-0.072185755
112	0x3e1ed67d	0.15511508
113	0xbe853e63	-0.2602416
114	0x3f46b88e	0.7762536
115	0xbeef4355	-0.46731058
116	0x3e26480d	0.16238423
117	0xbe8826c7	-0.26592085
118	0xbe239c77	-0.15977655
119	0xbe265460	-0.16243124
120	0x3dc8566d	0.097821094
121	0xbf041470	-0.51593685
122	0x3f459d89	0.77193505
123	0xbf0d41b6	-0.5517839
124	0x3d8229d3	0.063556336
125	0xbd48d6d9	-0.04903302
126	0x3ce50b2c	0.027959429
127	0xbeb2b47c	-0.34903324
128	0x3eb0b11d	0.34510127
129	0xbefe86fc	-0.4971236
130	0x3f3bcb48	0.7335706
131	0xbeea4be0	-0.45761013
132	0x3e6bf208	0.23041546
133	0xbe9a2b78	-0.3011129
134	0xbdfaa3d1	-0.12238277
135	0xbe48793f	-0.19577502
136	0x3e3603e4	0.17774922
137	0xbe8aa810	-0.27081347
138	0x3f7b6af6	0.98210084
139	0xbe24781b	-0.16061442
140	0xbe3db17c	-0.18524736
141	0xbe267f09	-0.16259398
142	0x3d0281fc	0.031862244
143	0xbd8d4e89	-0.06899745
144	0x3d7ceaf9	0.061747525
145	0xbe48c945	-0.19608028
146	0x3ee37ecb	0.44432673
147	0xc00a18eb	-2.1577709
148	0xbf5e939d	-0.8694399
149	0x3eaaa622	0.33329874
150	0x3f892621	1.0714761
151	0x4004eaae	2.0768237
152	0x4001f8f4	2.03082
153	0x3fb89b7c	1.442245
154	0xbf894f49	-1.0727321
155	0xbf2adee6	-0.66746366
156	0xbe3eda09	-0.18637861
157	0x3f59fed0	0.8515444
158	0x3fae6663	1.3624996
159	0x3f8c8d4a	1.0980618
160	0x400ab570	2.167324
161	0x3e6be4a4	0.23036438
162	0xbdfa196d	-0.12211881
163	0xbee78159	-0.45215872
164	0x3e945216	0.28968877
165	0x3f0879bc	0.5331075
166	0x3facd8e5	1.3503691
167	0x3ffdf3de	1.9840047
168	0x3f57a4e5	0.84235984
169	0x3f50e5e8	0.8160081
170	0x3e849dbe	0.25901598
171	0xbec1daa9	-0.37862137
172	0x3e2a7385	0.1664563
173	0x3f433ade	0.762617
174	0x3f7084f3	0.93952864
175	0x3fefc78b	1.8732771
176	0x3fbc8bf4	1.473021
177	0x3ee44a4c	0.44587934
178	0xbb059742	-0.0020384346
179	0xbe985f33	-0.2976013
180	0xbe792db7	-0.24333845
181	0x3e32ebe6	0.174728
182	0x40132996	2.2994132
183	0x3f844551	1.0333654
184	0x3fa2548f	1.2682055
185	0x3f4be940	0.79652786
186	0xbd02d1e1	-0.031938437
187	0xbf3fbb86	-0.74895513
188	0xbf81faa7	-1.0154618
189	0x3fdb1fc3	1.7119068
190	0x400fcdf8	2.2469463
191	0x3ffae9e8	1.9602633
192	0x3f71ffd8	0.9453101
193	0x3e289c4e	0.16465876
194	0xbf879e4d	-1.0595185
195	0xc0085a0b	-2.1304958
196	0xbf55dab7	-0.8353686
197	0xbebeb5b7	-0.37248012
198	0xbe47f27c	-0.19526094
199	0x3ec11b67	0.3771622
200	0x3edfad98	0.4368713
201	0x3f5efad0	0.8710146
202	0x3f9c21b6	1.2197788
203	0xbe9ce11c	-0.30640495
204	0xbf3e33e7	-0.74297947
205	0xbd80a1d0	-0.06280863
206	0x3daf297a	0.08552833
207	0x3f1840bc	0.59473777
208	0x3fcaae3a	1.583442
209	0x3f5de601	0.86679083
210	0xbeb91a03	-0.36152658
211	0xbd4c5d21	-0.049893502
212	0x3e9b67e3	0.30352697
213	0xbe16f0c2	-0.1474028
214	0x3f2b6584	0.66951776
215	0x3f1320e6	0.57472074
216	0x3f2fe390	0.6870661
217	0x3eadb991	0.33930638
218	0x3e4eee4f	0.20208095
219	0xbe885bd3	-0.26632556
220	0x3f740185	0.9531482
221	0xbd4c8789	-0.049933944
222	0x3cb557f4	0.022136666
223	0x3ea7a86f	0.32745692
224	0x3f031f86	0.51219976
225	0x3f115af0	0.56779385
226	0x3f3bd984	0.7337878
227	0x3e5e23b6	0.2169331
228	0x3e012c0a	0.12614456
229	0xbe831a4d	-0.25606003
230	0xbe84d34d	-0.2594246
231	0x3f5d5282	0.8645402
232	0x3fc77487	1.5582436
233	0x3f3f5ff2	0.74755776
234	0x3ce9074f	0.028445868
235	0xbeb0e52d	-0.34549847
236	0xbf690498	-0.91022635
237	0xbe9befe3	-0.30456457
238	0x3fb0661f	1.3781165
239	0x3f43e688	0.7652364
240	0x3f1ce234	0.6128266
241	0x3e642499	0.22279586
242	0xbe392324	-0.18079811
243	0xbebfdee3	-0.37474737
244	0xbf213f3e	-0.62987125
245	0x3fd90d7d	1.6957241
246	0xbedaa1f1	-0.42701676
247	0xbe9b6662	-0.3035155
248	0xbec7157d	-0.38883582
249	0xbf2981e4	-0.6621382
250	0xbf2cf31d	-0.6755846
251	0x3e881031	0.26574853
252	0xbf1ff122	-0.62477314
253	0x3f8f2d8b	1.1185774
254	0x3eed45c0	0.46342278
255	0xbf17c1f4	-0.59280324

layers.0.bias f4 [21]
0	0xbe9f7bac	-0.31149042
1	0x4010c431	2.2619746
2	0xbe3f2fff	-0.18670653
3	0x40676968	3.6158085
4	0x3fd4c8a7	1.6623734
5	0xbf04cb1e	-0.5187243
6	0x3ec517b0	0.38494635
7	0x40332d07	2.7996233
8	0x404b02d3	3.1720474
9	0x3ef55ea9	0.47923782
10	0x4050d71b	3.263129
11	0xbe629a8c	-0.22129267
12	0x406f30f4	3.7373629
13	0x3f811ba4	1.008656
14	0x3fa64995	1.2991205
15	0x3f680441	0.9063149
16	0x3f720e0f	0.945527
17	0x3f1982ab	0.5996501
18	0x3ee9099f	0.45515153
19	0x400898ad	2.1343186
20	0x3f3e6c39	0.74383885

layers.1.weight f4 [22, 21]
0	0xbea17e26	-0.31541556
1	0xbfbed5e6	-1.4909027
2	0x3fb932fc	1.4468684
3	0xbff1d780	-1.889389
4	0xbfc6bcd2	-1.5526373
5	0x406d1e40	3.7049713
6	0xbfd80349	-1.6876003
7	0xbfcd5ca4	-1.6043897
8	0x3f942a2f	1.1575373
9	0x3fe90ebc	1.8207622
10	0x3e85a3a7	0.2610142
11	0xbe4d80f6	-0.20068726
12	0x3e0e7f0b	0.1391565
13	0x400907a7	2.141092
14	0xbef7d7ce	-0.48406833
15	0xbec9a8cf	-0.39386603
16	0xbe52a2e9	-0.20569958
17	0xbf016115	-0.5053876
18	0x3d3a77f7	0.045524564
19	0xbfc4c384	-1.5372167
20	0xbecc722a	-0.3993085
21	0x3ecfa81f	0.40557954
22	0xbf24a7e4	-0.6431868
23	0x3eb7a824	0.3587047
24	0xbfd24abf	-1.6429061
25	0xbf8336c7	-1.0251092
26	0x403c7ca4	2.9451075
27	0xbf425134	-0.75905156
28	0xbf86365f	-1.0485343
29	0x3e3bbf0c	0.18334597
30	0x406dcf4f	3.715778
31	0x3f5a20ca	0.8520628
32	0x3dad81b1	0.08472002
33	0xbd94e7e6	-0.072707936
34	0x402085ff	2.5081785
35	0xbf3033d0	-0.6882906
36	0xbf534dd6	-0.82540643
37	0xbe50bff6	-0.20385727
38	0xbfb02c2d	-1.3763481
39	0xbfa4b27b	-1.2866968
40	0xbf66183b	-0.8988072
41	0xbee86b94	-0.45394576
42	0x3f022af7	0.5084681
43	0xc011b0ff	-2.276428
44	0xbf29a11c	-0.6626146
45	0xc039fe84	-2.9061594
46	0xbe66f41c	-0.22554058
47	0x3f0a1a82	0.539467
48	0xbfaaf968	-1.3357363
49	0xbf7c058e	-0.98445976
50	0x3e4e32c4	0.20136553
51	0x4074ecd6	3.8269553
52	0x3f5ff946	0.87489736
53	0xbe464d65	-0.19365461
54	0x3fb14904	1.3850408
55	0x4033e9d5	2.811147
56	0xc00c518f	-2.192478
57	0x3f978123	1.1836284
58	0xbff33e3b	-1.9003366
59	0xbfd307f1	-1.6486799
60	0xc01d1a98	-2.4547482
61	0xbf450059	-0.76953655
62	0xbf04ff2b	-0.51951855
63	0xbf705c2f	-0.9389066
64	0xbf891bc5	-1.07116
65	0xbf04907b	-0.5178296
66	0xc0ab8d74	-5.361017
67	0xc030767b	-2.7572315
68	0xbf833705	-1.0251166
69	0xbf9c34ef	-1.2203654
70	0xbf904799	-1.127185
71	0x3f745c56	0.95453393
72	0x401387e1	2.3051684
73	0x3fee4100	1.8613586
74	0xbd9e39be	-0.07725857
75	0x3fb95188	1.4478006
76	0x40224655	2.5355427
77	0xbf7e6459	-0.9937187
78	0x3f4df422	0.8045064
79	0xbfc9e1b0	-1.5771999
80	0x3ed38249	0.41310337
81	0x3f435466	0.76300657
82	0xbf3a796e	-0.72841537
83	0xbe8de6df	-0.27715203
84	0xbd052bc0	-0.032512426
85	0x3e4cd93c	0.20004743
86	0x3f840614	1.0314355
87	0xc0695136	-3.6455817
88	0xc0030151	-2.0469553
89	0xbfb68340	-1.4258804
90	0xbf7eaf3e	-0.9948615
91	0xc00a1117	-2.157293
92	0x3f71b8f6	0.94422853
93	0x3f9ee395	1.2413203
94	0x3f9401a9	1.1563007
95	0xbe3c9ab8	-0.18418396
96	0x3ffb32fa	1.9624932
97	0x400be712	2.1859784
98	0xbf48ccd1	-0.78437525
99	0x3fb8d784	1.444077
100	0xbf1dad00	-0.615921
101	0x3fceb682	1.6149447
102	0x3ece4a0b	0.40290865
103	0x3e7388e4	0.23782688
104	0xbf43afe4	-0.7644026
105	0x3e3bed4f	0.18352245
106	0x3f62b230	0.8855314
107	0x3f0c70ca	0.548596
108	0xbfd07760	-1.628643
109	0xbee8e238	-0.4548509
110	0xbf0cbf2e	-0.5497922
111	0xbf48aca6	-0.7838844
112	0xc0869d03	-4.2066665
113	0x3f5c0c52	0.859563
114	0x3e57de92	0.21080998
115	0x3f9c7261	1.2222406
116	0xbdba3e9d	-0.09093974
117	0x3fdd5d5e	1.7294118
118	0x3feaf7e9	1.8356906
119	0xbf0ffd38	-0.56245756
120	0x3fd9e258	1.70222
121	0xbeb745ab	-0.3579534
122	0x3f98ba1a	1.1931794
123	0x3d4bb03d	0.04972862
124	0x3f78fe82	0.9726335
125	0xbfb2f45c	-1.3980823
126	0xbe9d1ac6	-0.3068449
127	0x3f3a9d0a	0.7289587
128	0xbf9b2d4f	-1.2123202
129	0x3f162ced	0.586623
130	0x3ebab1a2	0.36463648
131	0x3e018881	0.12649728
132	0xbee75b41	-0.4518681
133	0xc0b70463	-5.7192855
134	0x3fb3f492	1.4059012
135	0xbf1e95c2	-0.6194726
136	0x3f8575a8	1.0426531
137	0x3ddc2198	0.10748595
138	0x3fe905c8	1.8204889
139	0x3fb0f3bd	1.3824383
140	0xbe36f28a	-0.17865959
141	0x3fbf8021	1.4960977
142	0xbe605be7	-0.21910058
143	0x3e978ce7	0.29599687
144	0xbd8625a3	-0.065501474
145	0x3f34760a	0.70492613
146	0xbfeca815	-1.8488795
147	0x3d825bd7	0.06365173
148	0x3f35c5cc	0.7100494
149	0xbf1ad4d7	-0.6048102
150	0x3f2c411a	0.6728684
151	0x3ee5fc2a	0.44918948
152	0x3de136b4	0.10996762
153	0xbe755f49	-0.2396213
154	0xc05ddb3e	-3.4665065
155	0x3fb51879	1.4148093
156	0xbf8bd66b	-1.092481
157	0x3fa3fe32	1.2811949
158	0x3dd3807e	0.10327242
159	0x3ff72e0a	1.9310925
160	0x3f672ee3	0.9030592
161	0x3ec0f820	0.37689304
162	0x3f6c6d1e	0.92354
163	0xbd7afe48	-0.061277658
164	0x3eac7734	0.33684695
165	0xbf21e3f8	-0.6323848
166	0x3f31d765	0.6946929
167	0xbfebab51	-1.8411657
168	0xbddb02f1	-0.106939204
169	0x3f4e1543	0.8050119
170	0x3e629f75	0.2213114
171	0x3ef82c27	0.48471186
172	0x3e7eac17	0.24870335
173	0x3e748d53	0.23882036
174	0xbeafacd1	-0.34311536
175	0xbfd23356	-1.6421916
176	0x3fae78bc	1.3630595
177	0xbf495a72	-0.78653634
178	0x3f89cc05	1.0765387
179	0x3f36935a	0.7131859
180	0x3fd00d92	1.6254141
181	0x3f1cd341	0.6125985
182	0x3e53ff85	0.20702942
183	0x3f1ee5a1	0.62069136
184	0x3e8f9143	0.28040513
185	0x3efc9610	0.4933324
186	0xbf5eacf9	-0.86982685
187	0x3fbf0945	1.4924704
188	0xbf876f20	-1.0580788
189	0xbe9db56a	-0.3080247
190	0x3f4ec45c	0.8076837
191	0xbdae3a5f	-0.08507227
192	0x3f302c8e	0.68817985
193	0xbc2c7a81	-0.010527254
194	0x3ec3a99f	0.38215348
195	0xbe7ff6eb	-0.24996535
196	0xbf13f58c	-0.5779655
197	0x3fa88583	1.3165745
198	0xbf27ca99	-0.65543514
199	0x3f87a547	1.0597314
200	0xbdbb0ee2	-0.09133698
201	0x3fa10c8f	1.2581958
202	0x3e9affa8	0.30273175
203	0x3ea4bbff	0.3217468
204	0x3e614d98	0.22002256
205	0x3f1fd235	0.62430125
206	0x3e908ad0	0.28230906
207	0xbf392694	-0.7232449
208	0x3fe45c80	1.7840729
209	0xbf412324	-0.75444245
210	0xbe1eff88	-0.15527165
211	0x3f5b44e1	0.85651976
212	0xbdf34d83	-0.118800186
213	0x3f40803d	0.75195676
214	0x3ca3cabd	0.019994134
215	0x3e8183f9	0.25296
216	0xbcceaeb0	-0.025229782
217	0x3d3d93b6	0.046283446
218	0x3f9a9908	1.2077951
219	0xbefb460f	-0.49076888
220	0x3f82f2d1	1.0230352
221	0xbf1c2bed	-0.61004525
222	0x3fa54be7	1.2913789
223	0xbf2b3d2d	-0.6689022
224	0x3ee7f76f	0.45305964
225	0xbd3b9651	-0.04579765
226	0x3f6e4670	0.9307623
227	0x3d899819	0.067184635
228	0xbf3ed09f	-0.7453708
229	0x3fd7f4fa	1.6871636
230	0xbf1ff638	-0.62485075
231	0x3e28fff5	0.1650389
232	0x3f5d962e	0.8655728
233	0xbeeb1dd0	-0.45921183
234	0x3f8ac16d	1.0840279
235	0xbdcd957f	-0.1003828
236	0x3cf82c1f	0.030294476
237	0x3e74b5ff	0.23897551
238	0x3eae481b	0.34039387
239	0x3fb4f451	1.413706
240	0xbebbd75e	-0.3668775
241	0x3f930196	1.1484859
242	0xbeef3b15	-0.46724764
243	0x3f82e65e	1.0226552
244	0xbff5261f	-1.9152259
245	0x3eb5e7ae	0.3552832
246	0xbeab5fff	-0.33471677
247	0x3f73315f	0.9499721
248	0xbe13e113	-0.14441328
249	0xbf467ed1	-0.77537256
250	0x3fb0c23f	1.3809279
251	0xbe377dcd	-0.17919083
252	0x3efc0f67	0.492305
253	0x3f781c37	0.9691805
254	0xbcc2dd4d	-0.023787165
255	0x3f6d8728	0.9278436

layers.1.bias f4 [22]
0	0xbf0a3791	-0.5399104
1	0xbeb952c1	-0.3619595
2	0xbed266f4	-0.41094172
3	0xbe069d41	-0.13145925
4	0xbcac9817	-0.021068616
5	0x3ea5b67d	0.3236579
6	0x3f3f1841	0.74646384
7	0x3f017d70	0.5058203
8	0x3e8f5551	0.2799478
9	0x3e20273f	0.15639971
10	0x3e8ab0ed	0.2708811
11	0x3eb34338	0.3501222
12	0x3ec46b5a	0.38363153
13	0x3ca8b4d5	0.02059404
14	0x3d156c21	0.036480073
15	0xbcd7425c	-0.02627676
16	0xbccf1c6f	-0.025282113
17	0xbe6b34f0	-0.22969413
18	0xbe6140bd	-0.21997352
19	0xbe4e5b8b	-0.20152108
20	0xbe7de6c3	-0.2479506
21	0xbeda3b91	-0.4262357
