6_27_2024_permutation_statistics/models/stat3_7.pt (torch, 6416 bytes, 4 tensors)

layers.0.weight f4 [21, 49]
000000 5c ce 04 3e ac 58 d7 3d e8 9b e1 be 54 a7 62 3d
       0.12969345 0.1051496 -0.4406426 0.055335358
000010 d1 40 14 3e c7 e6 8a 3d 20 71 35 be 73 cd 3b 3e
       0.1447785 0.067822985 -0.17718935 0.18340091
000020 90 c8 b2 3d 50 9f 69 3e 96 4a e2 bd c8 64 d0 be
       0.087296605 0.22814679 -0.110493824 -0.4070189
000030 67 f9 1a bd be 80 8f 3e 8a 96 ee be 8a 95 7c 3e
       -0.037835505 0.2802791 -0.46599227 0.2466642
000040 7a 5e f4 3c 9d de 43 3e bf 67 57 3e 80 f1 66 3e
       0.029830206 0.19127889 0.2103567 0.22553062
000050 3e 43 c5 be d9 49 b8 3d 20 ed 5d bd d2 48 94 3e
       -0.38527864 0.0899846 -0.05418122 0.28961807
000060 20 55 c3 3b f2 b1 b5 bd 60 63 52 be 34 af 03 3e
       0.0059610754 -0.08871831 -0.20545721 0.12859803
000070 b3 1e 08 3e bd 75 96 be d6 bf e6 3e d4 10 cd 3d
       0.13292961 -0.29386702 0.45068234 0.10012975
000080 30 e0 96 bb fe 9a 4a be a7 cb ec 3c 5b de dc bb
       -0.004604362 -0.19785687 0.028905703 -0.006740374
000090 69 8b 08 3e b5 e2 14 3d 05 29 51 be 5f fe 1d be
       0.13334431 0.036349017 -0.20425804 -0.15429066
0000a0 0c 10 94 3c 4f bb 4a 3e 73 a1 52 be 18 3a 56 3e
       0.018074058 0.19798015 -0.205694 0.20920599
0000b0 04 41 f8 be 0d 83 ea bd f9 67 77 3c c3 c4 0e 3e
       -0.48487103 -0.11450777 0.015100473 0.13942246
0000c0 62 0d c0 3e 8d 1e 84 3d 80 3e 32 be 50 a1 e4 3e
       0.3751021 0.064511396 -0.17406654 0.44654322
0000d0 fd bb 9f 3e 12 33 f6 be 61 e1 a4 3e e9 1d 4b be
       0.3119811 -0.4808584 0.322032 -0.19835629
0000e0 d6 ef 7d 3e 71 e1 19 3c c5 c7 ad be 44 90 f4 bc
       0.24798521 0.009392128 -0.33941475 -0.029853947
0000f0 68 5a 5b bd d7 9a e0 3e 16 a3 bb be c0 90 ad be
       -0.053553015 0.43868133 -0.36647862 -0.33899498
000100 be a9 c8 3e 51 7f 30 3d 02 0e 0b be bd 50 85 bc
       0.39192003 0.04309017 -0.13579562 -0.01627385
000110 f7 7f e5 be 67 cb eb 3e 69 d8 86 be 8c 97 bf 3c
       -0.44824192 0.4605362 -0.26336983 0.023387693
000120 07 ff 26 3e b0 13 82 bc 99 6c 35 be 97 55 74 3e
       0.16308223 -0.015878528 -0.17717208 0.23860775
000130 de eb 93 3b c1 b2 02 3f 92 b4 e6 3c 22 41 c9 3c
       0.0045142015 0.51054007 0.028162275 0.02456719
000140 39 81 01 3e 19 e2 0e bd 03 b4 9f bd 57 cf 04 bf
       0.12646951 -0.034883592 -0.077980064 -0.51878875
000150 9b e9 83 be 8b d7 db be 58 7d fb 3e 7b 65 82 be
       -0.25764164 -0.42937884 0.49119067 -0.25468048
000160 ea c2 2f 3d 3b 49 22 b9 01 e2 f0 3e b3 72 76 3e
       0.042910494 -0.00015476804 0.47047427 0.24067192
000170 ce 17 b5 3e 18 18 e1 be 87 c0 2e bd d4 61 ec 3e
       0.35369724 -0.43963695 -0.042664077 0.46168387
000180 31 5c fc be 9a 0d b6 bc 75 c3 52 3c b5 bc 3f 3e
       -0.49289086 -0.022223283 0.012863983 0.1872433
000190 83 df 0f be 9a 03 5f be 32 eb 97 3e 35 0b ee bd
       -0.14050107 -0.21778718 0.29671627 -0.11623231
0001a0 93 20 86 3e 98 74 4d be bb 23 d7 bc 0c 83 ae bd
       0.26196727 -0.20064008 -0.026262155 -0.08521089
0001b0 b0 d8 fc 3e 93 11 2d be c8 01 cd 3e f8 8a 0b bf
       0.4938407 -0.16901235 0.4004042 -0.54508924
0001c0 36 1e 0e 3e b3 d2 35 3d 94 15 6f bc 8c ca df be
       0.13878712 0.04439039 -0.014592547 -0.43709219
0001d0 bb d7 21 3c fd 54 23 3e ea dc d0 3b 28 c8 64 3e
       0.009878094 0.15950389 0.0063739913 0.22341979
0001e0 31 fe 06 bf 5b a6 d4 3e 3c cc ec bb fa 17 58 be
       -0.52731615 0.4153317 -0.007226495 -0.21102896
0001f0 06 58 04 3e 56 d0 29 3c 46 8d 8c be d0 cd 1b 3e
       0.12924203 0.010364613 -0.27451533 0.1521523
000200 d3 ee 76 bc ef 3f 5a 3e 73 30 19 3c 82 89 8d bd
       -0.015071589 0.21313451 0.00934993 -0.06910993
000210 47 05 89 3e ec 8d 26 3e 51 49 c9 be 39 ec 0f be
       0.2676184 0.16265076 -0.39313748 -0.14054956
000220 de d5 d2 bd 15 3f e5 3d 87 63 09 3d 67 a9 b1 3d
       -0.10294698 0.111936726 0.033542182 0.08674889
000230 97 47 81 be ef fd 03 3f e8 b4 c6 bc 1f 2f ab bc
       -0.2524993 0.51559347 -0.024256185 -0.020896493
000240 03 f2 85 be dc 8a 67 bd 63 73 57 bb 82 8b 0a be
       -0.26161203 -0.05652891 -0.0032875172 -0.1352978
000250 14 32 31 bd 29 5c c0 3d e7 6c c4 3e 0b b5 0a be
       -0.04326065 0.09392578 0.38364336 -0.13545625
000260 32 ac 54 bd 69 c5 0a be 5f 95 c0 bd 8b 0f 8f bd
       -0.05192203 -0.13551868 -0.0940349 -0.069853865
000270 62 7e cc bd d1 fc 3b be 2c a1 69 3b e4 46 fc 3c
       -0.09985043 -0.1835816 0.0035649044 0.030795522
000280 5e 10 5f 3d dc f6 42 3d 85 37 c9 bd ef 0f 11 bc
       0.05445897 0.047598705 -0.09825043 -0.0088538965
000290 d1 bf b8 3e e0 38 06 be 42 32 a9 bd 1d 5f fb 3b
       0.36083844 -0.13107634 -0.08261539 0.0076712505
0002a0 e1 0f b0 3e 6a 1d 34 be c4 ad c0 3e 64 07 fd bd
       0.34387115 -0.17589346 0.37632573 -0.12354925
0002b0 d3 d0 8f be 6c 48 a6 bd 3a b2 8d be 68 b7 27 be
       -0.28089008 -0.08119282 -0.2767504 -0.16378558
0002c0 a9 70 48 3d 38 17 82 bd 98 77 5f be 2f 69 8c bd
       0.048935566 -0.06352085 -0.21822965 -0.06856
0002d0 80 fb 0a bc d8 e7 3e 3d df eb 26 be 15 56 67 bb
       -0.008482814 0.046607822 -0.16300915 -0.0035299112
0002e0 81 72 62 be f6 7e 26 be 0c 77 83 bd 63 47 17 3e
       -0.22113992 -0.16259369 -0.06419191 0.14773326
0002f0 68 fe a7 bd ee 6d 6a bc cc 04 26 3e 13 10 9b 3d
       -0.08202821 -0.014308436 0.16212767 0.07571425
000300 0f f6 5a be 18 6e 06 3e 94 ae 6a 3d 66 4d 11 b9
       -0.21382926 0.13127935 0.057295397 -0.00013857111
000310 d6 1f db bd c3 a3 88 3d f7 d0 32 3d a4 84 1a be
       -0.106994316 0.0667186 0.043656316 -0.15089661
000320 45 35 d4 bd 08 8c e1 bc 01 95 30 3e 08 02 51 3d
       -0.10361723 -0.027532592 0.1724434 0.051027328
000330 ff f2 27 bd e5 51 bf bd 5a e8 7c bd 21 fb 6a bc
       -0.041003224 -0.09341792 -0.061745025 -0.0143421
000340 26 cd e8 bc 1e 20 2b 3e bd 18 4d 3d c7 d1 77 3d
       -0.028418135 0.1671147 0.05007242 0.060502794
000350 0e fb a7 bd ae da 8e bd 47 d9 f4 3d 23 2f f1 bd
       -0.08202182 -0.069753036 0.11955505 -0.11776569
000360 b5 aa 32 bd 67 55 d8 3d d2 8c 25 3d 2e 93 b3 3d
       -0.04361983 0.10563164 0.0404175 0.08768307
000370 a7 f9 96 bb ba 0a ad 3c d1 3d d8 bc c4 79 4e be
       -0.0046073976 0.021123279 -0.026396664 -0.20163637
000380 9e e4 76 3d 15 b6 13 3e 15 10 9a 3d 42 b4 bb 3d
       0.06027662 0.14424928 0.07522599 0.09165241
000390 a7 20 17 3d 8f eb eb bd 29 c1 b6 bd 36 70 93 3c
       0.036896374 -0.115195386 -0.08923561 0.017997842
0003a0 7c bf 40 bc 3c 6d 9b 3d f3 0f c9 bd e5 1d 8a 3d
       -0.011764403 0.07589194 -0.09817495 0.06743983
0003b0 ca 35 82 3d b7 e8 27 be 63 e9 53 bd 60 c8 4d bd
       0.06357916 -0.16397367 -0.051736247 -0.05023992
0003c0 a1 31 80 3d aa 18 44 3e 28 9a 33 3d 40 85 9e 3d
       0.06259466 0.19150034 0.043848187 0.07740259
0003d0 c6 c7 e7 bb ad e1 6c 3c 9d b4 d1 bd b4 42 36 3e
       -0.0070733754 0.014458102 -0.102395274 0.17798883
0003e0 58 18 c8 3d 47 bb cd be f5 e2 06 bd f4 da e4 3d
       0.09770268 -0.40181944 -0.032931287 0.111745745
0003f0 2f 81 53 bd 91 5f 2d 3d a3 58 84 3d 04 a6 0c 3d
       -0.05163687 0.042327467 0.064622186 0.034338012

layers.0.bias f4 [21]
000000 31 d6 28 bd d7 e7 33 bd 65 46 90 bb f4 0b b0 3b
       -0.041219894 -0.04392227 -0.004402923 0.0053725187
000010 48 7a a5 bd 0c e0 7c bc 19 b0 95 bc bd ba 55 3d
       -0.08079964 -0.015434276 -0.018272446 0.05218004
000020 34 60 20 3c cc 01 c3 3c 9f 77 77 3e bd 6d bd 3c
       0.009788562 0.023804568 0.24166726 0.023123616
000030 ff 88 8b 3e 31 b4 c4 bd ab e2 a0 bd ac 39 28 3d
       0.27252957 -0.09604681 -0.078557335 0.041070625
000040 06 27 d7 3a 80 08 05 bb b4 f4 29 bc e2 4d 34 3e
       0.0016414828 -0.0020299256 -0.010373283 0.17607835
000050 87 47 6b bc
       -0.014360315

layers.1.weight f4 [2, 21]
000000 0d 6f 7d bf de 2e c7 3f 4c 6d 83 3f 79 c6 37 bf
       -0.98997575 1.5561178 1.026773 -0.7178722
000010 e5 17 a6 3e 94 ab 51 bf 76 44 0b 40 01 d0 9e 3f
       0.32440105 -0.8190243 2.1760535 1.2407228
000020 fc e9 13 bf 55 b5 b4 3f 8c 3e 35 bf be 7c 04 3f
       -0.57778907 1.4117838 -0.70798564 0.5175284
000030 1e cc 82 3f 85 df fb 3f c0 08 9b bf f1 eb 42 bf
       1.0218542 1.9677588 -1.2112045 -0.7614127
000040 55 a3 00 40 eb f6 82 3f 4b 98 c5 be 7b 75 8f bf
       2.009969 1.0231603 -0.38592753 -1.1207727
000050 f5 47 24 40 c4 ab 82 3f b4 a2 9c bf b5 12 92 bf
       2.566892 1.0208669 -1.2237153 -1.1411959
000060 c0 47 18 3f d4 e4 a5 bd 39 1c 85 3f 42 38 07 c0
       0.5948448 -0.08100286 1.0399238 -2.1128087
000070 85 47 67 bf 57 75 f1 3e df d5 c3 bf 3c 62 86 3f
       -0.90343505 0.47159836 -1.5299643 1.0498729
000080 5d f6 32 bf b7 f7 83 bf 01 d5 d9 bf ef 3a 93 3f
       -0.6990717 -1.0309972 -1.7018129 1.150236
000090 cb 62 34 3f 79 c1 04 c0 f9 14 81 bf 85 6d f3 3e
       0.70463246 -2.0743086 -1.0084525 0.47544494
0000a0 13 15 73 3f 57 fa 13 c0
       0.9495403 -2.3121545

layers.1.bias f4 [2]
000000 d5 45 60 be db 74 10 3e
       -0.21901639 0.14107077
