6_27_2024_permutation_statistics/models/stat3_5.pt (torch, 1752 bytes, 2 tensors)

layers.0.weight f4 [2, 25]
-0.44183317 0.07021716 -0.0081616435 -0.15194678 0.12032778 0.039116934 -0.14984159 0.12850821
0.042815838 0.22153105 0.15614007 0.06609836 -0.28914917 0.25154462 0.13130991 0.14428179
0.25374612 0.2016913 -0.50175416 0.088992484 0.3628193 0.15092114 0.15947382 0.08349609
-0.49148998 0.4223623 -0.087264 -0.12158983 -0.16250005 -0.24879518 -0.04946395 0.1346529
-0.13082954 -0.2762861 -0.179929 -0.15440468 -0.042109873 0.41514012 -0.2727503 -0.0957375
0.013961859 -0.25379848 -0.018348953 0.6192469 -0.2899859 -0.3238419 0.053421393 0.07469901
-0.14305969 0.4961175
00000000: f537 e2be 04ce 8f3d 6ab8 05bc f097 1bbe
00000010: 696e f63d 1439 203d 1370 19be a897 033e
00000020: a95f 2f3d 09d9 623e 2fe3 1f3e 945e 873d
00000030: 5c0b 94be 75ca 803e 1b76 063e 9bbe 133e
00000040: 03eb 813e 2a88 4e3e f672 00bf b141 b63d
00000050: 74c3 b93e 128b 1a3e 1b4d 233e ffff aa3d
00000060: 93a4 fbbe df3f d83e 78b7 b2bd 1704 f9bd
00000070: 6a66 26be 2ac4 7ebe b69a 4abd 73e2 093e
00000080: 2ef8 05be 5f75 8dbe 4f3f 38be 431c 1ebe
00000090: 677b 2cbd 3f8d d43e eda5 8bbe 0612 c4bd
000000a0: 48c0 643c e0f1 81be 8b50 96bc f786 1e3f
000000b0: 0879 94be 9bce a5be 64d0 5a3d cbfb 983d
000000c0: 3d7e 12be 1d03 fe3e

layers.0.bias f4 [2]
0.20919691 0.09933391
00000000: b737 563e 946f cb3d
