6_27_2024_permutation_statistics/models/stat8_7.pt (torch, 3472 bytes, 4 tensors)

layers.0.weight f4 [7, 49]
000000 70 de 5b bf 97 1a 08 3f 26 a7 44 3f 1a e1 b9 3c
       -0.8588629 0.5316557 0.7681755 0.022690345
000010 77 ec 31 3e 7f 9c c1 bd 19 2f db be 74 3a 1a 3f
       0.1737536 -0.094536774 -0.4280937 0.6024544
000020 b1 fc 17 3f 36 66 7e bf 83 bb a3 bf 88 78 05 3f
       0.5936995 -0.9937471 -1.2791599 0.5213704
000030 20 5c 1d 3f 02 ca 05 bc 8f 24 e4 bd e1 20 45 bf
       0.61468697 -0.008165838 -0.111397855 -0.77003294
000040 96 7b 02 bf 1b c4 62 3f ee 10 52 3f 26 c0 d2 be
       -0.5096983 0.88580483 0.8205708 -0.41162223
000050 57 9d 5b 3e 6b 67 66 3f 99 96 8a be a1 6b 8c 3e
       0.21446739 0.90001553 -0.27068022 0.27425864
000060 e2 95 68 3d fc 06 71 bf be 55 bd 3d 30 26 b4 3d
       0.056783564 -0.9415128 0.0924487 0.08796346
000070 1d c4 49 bf 6c e0 d7 3e 97 09 84 be b7 77 3a 3d
       -0.7881487 0.42163408 -0.25788566 0.045524325
000080 b6 70 47 3e 4e 1f d2 3e 46 c3 8d be 4a 57 4a 3e
       0.1947659 0.4103951 -0.27688044 0.1975986
000090 03 83 ae bc e2 84 dc 3e 8d 6c 85 3f 80 89 3e be
       -0.021302706 0.43070132 1.0423752 -0.1860714
0000a0 17 b1 87 bf 99 55 7d 3d e5 73 b8 3c e7 55 b9 be
       -1.0600919 0.06184921 0.0225162 -0.3619835
0000b0 f3 ef 07 3f 8c ca c9 be f0 26 a6 be 01 c7 e1 3e
       0.5310051 -0.39412344 -0.32451582 0.4409714
0000c0 c2 70 24 3e e8 f7 8b be 6e bf a7 be e1 7e 2c bf
       0.16058639 -0.27337575 -0.32763237 -0.673811
0000d0 58 df 39 3c 60 0c 6f 3f 14 3d 40 3f e2 67 1b 3f
       0.011344753 0.9337826 0.750932 0.6070539
0000e0 a7 38 45 bd 03 c5 7f bf e9 7e f3 3b 96 a1 83 3e
       -0.04814973 -0.9990999 0.0074309004 0.25709218
0000f0 b4 2c 93 bc 0a 22 4e 3f 83 f1 63 3f 54 52 9b be
       -0.017965652 0.8052069 0.8904039 -0.3033625
000100 b7 85 04 bf 71 6a ae 3e e6 71 8b be 5a d8 d5 3c
       -0.5176653 0.34065583 -0.27235335 0.026104141
000110 19 15 7d 3f e5 db 1e 3f cf 9e 82 3f b3 fb 79 3f
       0.9886032 0.6205428 1.0204715 0.9764969
000120 67 9e 65 be cb c2 ec 3e dc 16 96 bc a2 40 08 bf
       -0.22423707 0.46242365 -0.018321447 -0.5322362
000130 45 de 4e bf f4 42 af be 49 41 2e 3f 50 cb a8 3f
       -0.80807906 -0.3423077 0.6806837 1.3187046
000140 57 ed 71 bd 5c ba 48 bd a3 3f b2 be 1c 13 e7 be
       -0.059064236 -0.04900585 -0.34814176 -0.45131767
000150 4c 02 82 3e c3 58 7f 3e d7 11 49 3f 7c 48 0e 3f
       0.25392377 0.24936204 0.78542846 0.5557935
000160 e5 d3 a1 be d0 68 2e bf 05 4e 29 3e e8 a0 46 3e
       -0.31606975 -0.6812868 0.16533668 0.19397318
000170 32 ac 38 3f 37 e1 8a be 5f 97 0f 3e 17 bf b6 3e
       0.7213775 -0.2712495 0.14022587 0.35692665
000180 0d e7 84 3d b5 3e e1 bd 8a 4d cf 3e be 24 17 be
       0.06489382 -0.109982885 0.40488845 -0.1476011
000190 ba 74 96 3d 5a c3 f1 3d 5e 02 41 3c f7 a5 c7 3b
       0.073464826 0.118048385 0.01178035 0.0060927826
0001a0 33 58 03 bf 1f 9c 83 3d fe 06 20 bf 7b cf 0a 3f
       -0.51306456 0.06426262 -0.6251067 0.5422284
0001b0 44 a2 81 3e 57 ba d7 3e d1 19 c0 bc 50 c4 5a bf
       0.2531911 0.42134354 -0.02344981 -0.854558
0001c0 84 0f a2 3f 1f 2b 78 3f 35 ec ef be 78 c2 3b bf
       1.2660985 0.969408 -0.468599 -0.7334361
0001d0 c9 9c 37 bf c7 b8 be bf ac 41 a1 3f 62 27 7a bf
       -0.7172361 -1.490014 1.2598166 -0.97716343
0001e0 28 a5 85 be 2c cd 29 bd 92 5b 22 be ab 33 9f 3d
       -0.26102567 -0.041455433 -0.15855244 0.07773527
0001f0 a7 6c b7 be 44 3a aa 3f c4 5d ec be 8e 5e 06 bf
       -0.35825083 1.3299031 -0.46165287 -0.5248803
000200 9b 48 b5 be 7f 27 ce be b2 96 c1 be 91 50 8a 3f
       -0.35406956 -0.40264508 -0.37810284 1.0805837
000210 09 16 5a 3f de 01 f3 be 33 71 07 be 04 16 65 bd
       0.8518987 -0.47462362 -0.13226776 -0.0559292
000220 39 39 79 bd 10 86 89 3e fc 31 33 3f f6 71 22 bf
       -0.060845587 0.26860094 0.69998145 -0.6345514
000230 b1 4c 31 bd 2a 90 02 3f 2e 64 b5 3e 62 31 e6 3e
       -0.04328603 0.51001227 0.35427994 0.4495955
000240 d3 4b ca 3e 5f 60 53 be 07 34 d4 bf dc 90 23 be
       0.39510974 -0.20642231 -1.6578377 -0.15973228
000250 68 d3 8a 3e b5 31 66 3d 34 17 ab 3d 38 09 d0 3e
       0.27114415 0.056199748 0.08354035 0.40632033
000260 c6 39 cd be 03 b0 5e bf a2 9c 8f bf 6a 7b 10 bf
       -0.4008314 -0.8698732 -1.1219676 -0.56438315
000270 6c 58 cf be 8f f4 a0 bd 56 98 6b 3e f0 9b 30 3f
       -0.40497148 -0.07859146 0.2300733 0.6898794
000280 0e d0 e2 3e f8 b9 28 3f 44 8f 96 bf a6 1a 8e bf
       0.44299358 0.65908766 -1.1762471 -1.1101882
000290 e0 f5 46 bf dd 33 36 3e 00 fe e5 3e 6d 03 95 3f
       -0.77718925 0.17793222 0.4492035 1.164167
0002a0 3a 90 de 3f f7 60 04 3f 88 28 20 bf 6c 67 8d bf
       1.7387764 0.51710457 -0.62561846 -1.1047187
0002b0 b5 d8 b3 bf 32 ef d3 be 67 99 60 3e 37 aa b3 be
       -1.4050509 -0.4139343 0.21933518 -0.350908
0002c0 56 84 ac 3f 77 13 cc 3f 31 4d 35 be 5d 57 6b bf
       1.3477886 1.594344 -0.17705227 -0.9193018
0002d0 4a 14 9a bf 0c cd 8f bf 64 07 38 bf fc 93 3e bf
       -1.2037442 -1.123445 -0.7188628 -0.74444556
0002e0 db 58 0b 3f 08 10 88 3f 5c 2b d7 3e 88 92 f4 be
       0.5443246 1.0629892 0.42025268 -0.47768044
0002f0 f2 a0 2c bf d9 ec 27 bf 89 52 33 bf 36 08 5a bf
       -0.67433083 -0.65595776 -0.70047814 -0.8516878
000300 d7 e8 c5 3d 52 3d f1 3e aa e9 14 3f 63 bb d6 3e
       0.09663551 0.47117096 0.58169043 0.4193984
000310 d4 0e 24 bf d6 88 9d bd 13 99 4c bd 53 7a a4 3e
       -0.64085126 -0.07692115 -0.04995067 0.32124576
000320 a7 b2 a9 3e 6d 42 50 3d 6b 20 28 be c5 2d 19 be
       0.33144113 0.0508446 -0.16418616 -0.14958866
000330 fb d7 ae be 48 c1 17 3f ad cd 2e 3f 1c 94 3f be
       -0.34149155 0.592793 0.68282586 -0.18708843
000340 06 38 55 be 58 2e 52 bd 9e 70 ca 3e 42 c0 4b 3f
       -0.20822152 -0.051313728 0.39539045 0.7959024
000350 f6 bc 38 3f 8d c2 47 bf f9 90 36 bf f2 af ae be
       0.7216333 -0.78031236 -0.7131496 -0.3411861
000360 31 d2 d4 3a 9f 8e 2e 3f 73 a6 81 bf 6f b6 55 bf
       0.0016236958 0.6818637 -1.0128921 -0.83481497
000370 7d 05 bb be 62 4a 0d 3f f8 50 3e 3f 15 9e a0 3e
       -0.36527625 0.55191624 0.743423 0.31370607
000380 f6 67 02 bf 28 9e b3 bd a0 56 4f 3f 16 2a 4c 3e
       -0.5093988 -0.087704 0.80991554 0.1993793
000390 4d bf bb 3d d1 45 4e bd 25 5e 10 bf 01 05 7c 3e
       0.09167347 -0.05035955 -0.56393653 0.24611284
0003a0 cf 6e 37 3f c5 37 11 bf f9 af 26 bd b1 b0 1d be
       0.71653455 -0.5672572 -0.040695164 -0.15399434
0003b0 a9 42 ce be 4a e2 c9 bd 4e 81 d4 bc ed 24 ab be
       -0.40285233 -0.09857614 -0.025940564 -0.3342661
0003c0 af fe 9b be e0 4d 0d be 74 6d 55 3d 8c af a5 3e
       -0.30467746 -0.13799238 0.052106336 0.32360494
0003d0 26 3b 44 3e b1 3a 6f bf 8c 78 0f be 92 a4 3c 3e
       0.19163188 -0.9344893 -0.14010829 0.18422154
0003e0 67 6c 20 3f 63 93 1d be 50 3b c7 3d 07 34 a7 3e
       0.6266541 -0.15388255 0.0972811 0.3265688
0003f0 48 88 5e bd 1d 35 a9 3f 52 a7 16 bd 8f fd e3 3d
       -0.054329187 1.3219334 -0.036780663 0.11132347

layers.0.bias f4 [7]
000000 88 87 b7 3c 83 d7 7c 3f 31 ea 0f be 4e e8 48 bf
       0.022403494 0.98766345 -0.1405418 -0.7847947
000010 91 6f 64 bc 67 f2 7a bd 13 15 86 3d
       -0.013942615 -0.06126633 0.06546988

layers.1.weight f4 [2, 7]
000000 34 99 36 40 52 ec 29 40 19 f7 51 40 fc 6c 7a c0
       2.8531008 2.6550488 3.2807066 -3.9129019
000010 e7 76 09 40 55 11 07 40 ea ab 15 40 10 d0 19 c0
       2.1478822 2.1104329 2.3386178 -2.4033241
000020 bd 38 2b c0 de 56 3d c0 cd 6f 70 40 07 e8 12 c0
       -2.675338 -2.958427 3.7568238 -2.2954118
000030 f3 fc 24 c0 a7 69 1e c0
       -2.5779388 -2.4751985

layers.1.bias f4 [2]
000000 a6 c8 52 c0 3e 12 69 40
       -3.2934966 3.6417384
