6_27_2024_permutation_statistics/models/stat2_5.pt (torch, 1752 bytes, 2 tensors)

layers.0.weight f4 [2, 25]
0	0x3e15a992	0.14615467
1	0xbc8e9909	-0.017406957
2	0x3dbeb80b	0.09312447
3	0x3db33ea6	0.087521836
4	0xbdecab3a	-0.115560964
5	0x3e221d63	0.15831523
6	0xbe039cf4	-0.12852842
7	0x3d1bbb5d	0.03802048
8	0xbd91b0ea	-0.07113822
9	0x3e14f2e3	0.14545779
10	0x3e2cb058	0.16864145
11	0xbc17df3e	-0.009269534
12	0x3d786abf	0.060648676
13	0x3dc5a987	0.096514754
14	0x3e02e596	0.12782893
15	0x3f4b8043	0.79492587
16	0x3eefd87a	0.46844846
17	0xbe111357	-0.14167534
18	0xbefdf3a0	-0.49599934
19	0xbf683e34	-0.90719914
20	0xbf774cf8	-0.9660182
21	0xbf09e1a8	-0.5385995
22	0xbe437448	-0.19087327
23	0x3ec1ee22	0.37876993
24	0x3f775443	0.9661295
25	0xbd2c5eda	-0.042082645
26	0xbd96ac44	-0.07357076
27	0x3e37b842	0.17941383
28	0x3df37c40	0.11888933
29	0xbe095cab	-0.13414256
30	0x3e1c5cfd	0.15269847
31	0xbe28bc82	-0.1647816
32	0xbe568858	-0.20950449
33	0xbca97503	-0.020685678
34	0x3dfbed7c	0.12301156
35	0x3e076c52	0.13224915
36	0x3d768020	0.060180783
37	0xbde2bc84	-0.11071113
38	0x3e2e37e1	0.17013504
39	0x3c38aa4d	0.011271072
40	0xbf680535	-0.90632945
41	0xbeef401a	-0.46728593
42	0xbe18b4a6	-0.14912662
43	0x3efef973	0.4979969
44	0x3f3fd99e	0.7494143
45	0x3f6704e3	0.9024183
46	0x3f234fcb	0.6379363
47	0xbe0b2a35	-0.1359032
48	0xbefb7c8a	-0.49118453
49	0xbf5b484d	-0.856572

layers.0.bias f4 [2]
0	0x3d7c388e	0.061577372
1	0x3dc02894	0.0938274
