6_27_2024_permutation_statistics/models/stat6_7.pt (torch, 12304 bytes, 4 tensors)

layers.0.weight f4 [49, 49]
000000 cc d3 df be 48 ae 33 3e 21 b5 de be 4f 9f 6b 3e
       -0.43716276 0.17546952 -0.43497565 0.2300999
000010 76 64 fa bd 90 fc 02 3f bf 42 25 be 8c 04 05 bf
       -0.12226193 0.5116663 -0.16138743 -0.51960063
000020 b6 b9 84 3e 8b 22 38 3e 2c 19 d3 be 99 b4 a8 3e
       0.25922936 0.17981927 -0.41230142 0.32950285
000030 dd ce c8 3c 2f 19 55 3e ac 46 cd 3d 9b ec 14 3e
       0.024512703 0.20810388 0.10023245 0.14543383
000040 64 50 92 3f b6 7e 4a bf f9 f4 04 bf 0c 30 52 bf
       1.1430783 -0.79099596 -0.519363 -0.82104564
000050 64 3a 02 3f 41 37 0c 3e 18 10 e1 be 53 b3 8c 3e
       0.5087035 0.13692953 -0.4395759 0.27480564
000060 4e b8 c9 be e1 ff 8a 3e 45 66 95 3e 09 12 4a be
       -0.39398426 0.27148345 0.29179588 -0.19733442
000070 57 f8 e5 3c 96 1b bd 3e 2e 50 0a 3e ac 6a 74 3e
       0.02807252 0.3693511 0.13507149 0.23868817
000080 00 1f 16 bf 73 25 52 be 90 b1 f5 bd fa 0f 82 3e
       -0.5864105 -0.20522098 -0.11996758 0.25402814
000090 fe 3b 34 bf 0f a5 cc be 73 fd f9 3d 70 e7 37 3e
       -0.7040404 -0.3996968 0.12206545 0.1795938
0000a0 46 a1 9b bd d4 22 80 3e 69 b0 9b 3e db c3 ab bb
       -0.0759912 0.25026572 0.30408028 -0.0052418537
0000b0 d4 44 47 bf 39 5e 37 3f 1c 3c d8 3e eb b8 01 be
       -0.778394 0.7162815 0.4223336 -0.12668197
0000c0 73 26 30 bf 1e 22 1d 3f 5c 96 3a bf b0 03 ab 3e
       -0.6880867 0.61380184 -0.7288568 0.3340125
0000d0 50 55 0f bf 53 74 05 ba c4 3e 4c be e8 9f 14 3f
       -0.5598955 -0.0005090881 -0.19945818 0.580565
0000e0 ba 76 1a bf 26 83 34 3f f4 43 1c 3e 98 7a 03 bd
       -0.6033741 0.70512617 0.15260297 -0.032099336
0000f0 bd a0 b4 3e a7 74 5b be 0c 4c af bd 00 ed bf be
       0.35278884 -0.21431218 -0.08559427 -0.37485504
000100 12 45 8d 3c 5c 85 cc be 09 6c 4c 3f e7 c4 ac 3d
       0.01724485 -0.39945495 0.7985235 0.08435994
000110 65 cd 06 bf 82 81 f4 3e ea d1 ca 3e 3e a9 ed be
       -0.5265716 0.47755057 0.39613277 -0.46418184
000120 a5 2c 99 3b b8 e8 eb 3e 21 66 c1 3c be 42 63 3b
       0.0046745115 0.46075988 0.02360827 0.0034677233
000130 e4 20 20 bf a3 46 4e 3e b8 ce 14 3e 4f 03 df 3e
       -0.6255019 0.20144133 0.14531982 0.43557212
000140 71 d5 59 3c b8 09 3d bf 2b 16 6b 3c 76 b9 bb 3e
       0.013295517 -0.73842955 0.014348547 0.36664933
000150 f3 ec 82 bd 0d 4c 66 be 8e 88 bd 3e 0f e5 73 be
       -0.06392851 -0.22489949 0.37018245 -0.23817848
000160 62 80 8a bd e8 79 43 3f 8c b5 43 bf 39 16 f1 3d
       -0.06762768 0.7635789 -0.76448894 0.11771817
000170 1e 5a b0 3e 1a f9 49 bf 03 8d 49 be 32 32 cb 3d
       0.34443754 -0.78895724 -0.19682698 0.09921683
000180 fc ff a9 3e d6 43 8b bd 77 76 51 be 8b 08 09 3f
       0.33203113 -0.06800048 -0.20455347 0.5352866
000190 5c cb 9f be 08 77 4a be 78 42 53 be af 23 6a be
       -0.31209838 -0.1977197 -0.20630825 -0.22865175
0001a0 8b 4e 03 be 07 50 5f be 18 4d 94 be 50 6c 50 3f
       -0.1282293 -0.21807872 -0.28965068 0.8141527
0001b0 b6 b7 38 bd ee 2e 75 3d a4 17 1d bf 98 2a 6d be
       -0.045097075 0.05985921 -0.613642 -0.2316078
0001c0 57 f2 3e 3f 1c 5e 97 be f0 26 b2 be 2c df c0 3e
       0.7458853 -0.29563987 -0.34795332 0.37670267
0001d0 a5 bd 81 be b3 44 b0 be 1a 5a 96 be 7a 7a 0b bf
       -0.2534 -0.34427413 -0.29365617 -0.5448376
0001e0 77 72 5f be 98 27 75 3a ae 07 43 bc 47 44 08 3f
       -0.21821009 0.0009351908 -0.011903686 0.5322918
0001f0 b9 eb 00 3e 45 5f 3d bf c9 4f 81 3e 9b 3b 54 be
       0.12589921 -0.73973495 0.25256184 -0.20725863
000200 82 94 0c be 8a 50 18 bf ae ff c6 3c 4c fe d3 3e
       -0.13728526 -0.5949789 0.02429184 0.4140495
000210 3a 32 bf be 6d 76 1e 3c 52 18 1c be 0a 0d 03 3e
       -0.37343007 0.00967179 -0.15243652 0.12797943
000220 81 97 b0 be 5e 08 e3 be 98 1c 8a be 41 ff 16 3f
       -0.34490588 -0.4434232 -0.2697494 0.58983237
000230 08 b1 38 bf 36 49 3f 3d d7 19 5b bf 44 16 c3 3d
       -0.7214513 0.04670068 -0.85586303 0.09525731
000240 9f 81 86 be 9b 7d 07 3f 62 48 07 3f 6a cf 15 bf
       -0.26270768 0.52926034 0.5284482 -0.58519614
000250 0d da 75 3e 14 dd 9d be 78 e8 4e be 9a ba 6a 3e
       0.24008961 -0.30832732 -0.20205867 0.22922745
000260 1c 34 6e be 22 9e 93 3e da cd 01 be 75 9e b2 be
       -0.23262066 0.28831583 -0.12676182 -0.34886518
000270 a2 a8 32 3e 55 79 11 3f a0 e0 eb be 54 ac e2 be
       0.17447141 0.56825763 -0.46069813 -0.442721
000280 23 a3 bc 3c d9 6b cb be 60 33 e5 be 49 e1 2b 3e
       0.023027008 -0.3973072 -0.4476576 0.16785158
000290 92 51 0e bf 4b ad 7b 3e 08 dd 23 3f 01 a1 4d 3e
       -0.55593216 0.24577825 0.6400914 0.2008095
0002a0 e1 bd 02 3e 41 bf 47 3e 2d aa 9a be 0d 46 65 3f
       0.12767746 0.19506551 -0.3020796 0.89560014
0002b0 36 a0 8c 3e 8b 08 59 bf 49 63 46 bf fc 09 86 3e
       0.2746598 -0.8477866 -0.7749525 0.26179492
0002c0 9e ec 71 be c0 84 08 bf eb ab ed bd df 67 bf 3e
       -0.23625419 -0.5332756 -0.116050564 0.37383935
0002d0 29 9f 72 3e 88 ff a9 be fd 18 84 be 77 68 bf 3e
       0.23693527 -0.33202767 -0.25800315 0.37384388
0002e0 97 bf 19 3f bd 43 0c bf 13 28 b2 be 0b 72 af 3e
       0.6005797 -0.5479086 -0.347962 0.34266695
0002f0 c0 f0 b6 be e8 c9 e2 3e c5 ba af bd 4b ac 27 be
       -0.35730553 0.44294667 -0.08580545 -0.16374318
000300 95 d0 e4 be 1e af 0c bf 1c 62 fd 3b a5 ec 12 3f
       -0.44690385 -0.5495471 0.007732643 0.5739234
000310 06 d3 58 3f 2c 7c 49 bf f4 3b 35 bd a8 11 8a 3c
       0.84696996 -0.78705096 -0.04424663 0.016854122
000320 35 82 42 bc 75 61 97 3e 02 36 da be a8 d9 14 bf
       -0.011871864 0.2956654 -0.4261933 -0.5814462
000330 5a c1 ba 3e 6a 89 57 3e f3 d0 c1 3e 7d 79 a7 be
       0.3647564 0.21048513 0.37854728 -0.32709876
000340 0c 9e be be b6 e3 d7 3e 40 5f e3 3e 9b 17 0c bf
       -0.37229955 0.42165917 0.44408607 -0.5472352
000350 7a 89 8c 3e 6c 11 6c bf ab 53 20 3f 8a 96 9b 3d
       0.27448636 -0.92214084 0.6262767 0.075970724
000360 60 f0 66 3e 85 dd 22 be d1 6d 87 3b 38 36 1d 3e
       0.22552633 -0.15904815 0.004132964 0.15352714
000370 f6 f8 91 be 40 56 81 3d d7 bf 72 3d f5 ad b2 bc
       -0.28510255 0.06315279 0.059264984 -0.021811465
000380 5f 81 4b 3e 10 64 91 be 02 9d 62 be 66 da e2 3e
       0.1987357 -0.28396654 -0.22130206 0.4430725
000390 11 e6 82 bd 04 aa 61 bf be 43 0b 3f d0 55 39 be
       -0.06391538 -0.8815005 0.5440024 -0.18099141
0003a0 e7 d3 7f 3e e9 e2 f8 bd 9f 8b 1b 3f c5 4c 38 bf
       0.24983178 -0.12152655 0.6075992 -0.7199214
0003b0 fb d4 86 3e d2 33 1c bf ea b6 35 bf 2c c3 23 3f
       0.26334366 -0.6101657 -0.7098223 0.63969684
0003c0 51 59 9d be b5 77 04 bf 35 97 f8 3d 4d e1 00 3f
       -0.30732206 -0.5174516 0.121382155 0.5034378
0003d0 3a 84 56 3e 9d ba cc be da b7 1a 3f 24 5e 15 bf
       0.20948878 -0.39986125 0.60436785 -0.5834677
0003e0 4c 7a 42 be 93 09 3b 3e ba 8b 1c be 5f 49 1e 3f
       -0.18991965 0.18265371 -0.15287676 0.61830705
0003f0 26 59 56 be e7 88 7d be b1 37 89 3f 8b d9 18 3f
       -0.20932445 -0.24759255 1.0720121 0.59706944

layers.0.bias f4 [49]
000000 19 42 a0 be 84 49 a6 bc f7 d0 c8 be e3 80 51 be
       -0.31300429 -0.020298727 -0.39221928 -0.20459323
000010 3a 1c 99 bd 24 cc db bd 35 b5 3c be b4 f1 8a 3e
       -0.07476087 -0.10732296 -0.184285 0.2713753
000020 f4 36 f4 3e 3c 0a ae 3e d4 06 10 3e 14 8c 5f be
       0.47698176 0.33992183 0.14065105 -0.2183078
000030 5b f3 83 3d 9c 7b 0b be 27 3d 9b be 8f 0e d0 3e
       0.06442901 -0.13621372 -0.30320093 0.40636107
000040 53 5a 92 3e 67 66 ac be 17 1d 8d 3e ce 64 cf 3e
       0.28584537 -0.33671877 0.27561256 0.40506595
000050 da 5a 99 be bc 4a 1c be b6 49 5f 3c b6 33 c9 bd
       -0.29952127 -0.15262884 0.013628414 -0.09824316
000060 b3 18 32 3e b3 87 93 be 80 54 72 be 5e de ee bd
       0.17392235 -0.28814468 -0.23665047 -0.11663507
000070 f5 4a dd bd ce d8 d2 3e 98 9c 46 be 33 fc 0a 3f
       -0.108053125 0.41181034 -0.19395673 0.54291075
000080 ae 78 de be 24 15 90 3d 54 9c 0f be 9e 44 97 3e
       -0.43451446 0.07035282 -0.14024478 0.29544538
000090 44 d0 7b 3e a8 66 8d 3e 5a ec 96 3d 7b 6a 1e 3d
       0.24591166 0.27617383 0.07369299 0.038675766
0000a0 3e b5 c3 3e ea ec af be aa 86 9b bd 28 ee dd ba
       0.38224214 -0.3436044 -0.075940445 -0.0016931938
0000b0 85 d6 8c 3e 99 5e 55 be 38 7c ae 3e a0 f3 84 3e
       0.27507415 -0.20836867 0.34079146 0.2596712
0000c0 81 4c 10 be
       -0.14091684

layers.1.weight f4 [2, 49]
000000 88 c0 02 40 c1 43 e6 bf 9e c2 f5 bf 93 53 e7 bf
       2.0430012 -1.7989427 -1.9200017 -1.807238
000010 2c fa fd bf a2 3f 09 40 ed 01 05 c0 7d 49 da bf
       -1.9841971 2.1445088 -2.0782425 -1.7053677
000020 f3 d1 c4 bf fa 22 ed 3f 4e d7 d5 bf cb b5 eb 3f
       -1.5376571 1.8526299 -1.6706331 1.8414854
000030 7b a9 ed bf 23 f3 de 3f 8c 47 fa bf fa 3c f2 bf
       -1.8567346 1.741795 -1.9553084 -1.8924859
000040 93 f8 c9 3f ad 66 c6 bf 21 d7 db 3f b0 5f c7 bf
       1.5778984 -1.5500084 1.7175027 -1.5576077
000050 fb e9 d2 bf 58 d6 ff 3f 63 18 b7 3f 0c 8c f8 3f
       -1.6477655 1.9987288 1.4304317 1.9417739
000060 c3 aa bd bf 92 4e 07 40 3e 84 da 3f a7 20 10 40
       -1.4817737 2.1141706 1.7071607 2.251993
000070 80 c4 f8 3f ca b7 d2 3f 44 27 e2 3f 0c 2f eb 3f
       1.9434967 1.6462338 1.7668233 1.8373733
000080 08 15 de 3f b2 db ef 3f 0d 1c ef 3f 56 4b d4 bf
       1.7350168 1.8738921 1.8680435 -1.6585491
000090 49 dc fc bf 63 13 c6 3f 7b 5e e6 bf 84 a6 e0 bf
       -1.9754726 1.5474666 -1.7997583 -1.7550817
0000a0 bd 19 e0 3f 9c 78 ee 3f e3 c9 d8 bf b2 e8 f0 bf
       1.7507855 1.8630557 -1.6936611 -1.8821013
0000b0 00 9e e9 bf 17 fb f9 3f c6 c4 00 c0 73 85 f3 3f
       -1.8251343 1.9529752 -2.01201 1.90251
0000c0 2e 74 f3 bf 50 b7 ed bf 49 02 ff 3f 89 ac ec 3f
       -1.901983 -1.8571568 1.9922572 1.8490154
0000d0 7a 66 fe 3f 28 c3 fb 3f 2e 2f 0b c0 4f c6 f3 3f
       1.9875023 1.9668932 -2.1747546 1.9044894
0000e0 92 46 d6 3f bd cf c1 3f 42 6a d0 bf 0b 05 e7 3f
       1.6740286 1.5141522 -1.6282427 1.8048414
0000f0 3d 96 fa bf 24 31 dd 3f 21 0f dc bf 9c 21 01 40
       -1.9577099 1.7280622 -1.7192117 2.0176764
000100 02 da fc 3f 83 77 dd bf a6 28 c1 3f a7 12 ed bf
       1.9754031 -1.7302097 1.509053 -1.8521317
000110 61 57 e9 3f 9f 0a d5 3f 5b 14 fd bf 13 a8 c7 bf
       1.8229791 1.6643866 -1.9771837 -1.5598167
000120 89 f2 06 c0 ed 0c b9 3f ba 4a f6 bf a3 5d f3 bf
       -2.1085532 1.445707 -1.9241555 -1.9012951
000130 87 90 04 c0 ed 26 e8 bf 62 8b ee bf 19 46 df bf
       -2.0713212 -1.8136879 -1.8636286 -1.7443267
000140 44 c1 f1 bf 4a 1e f5 bf 59 f9 ef bf 44 e7 05 c0
       -1.8887105 -1.9149868 -1.874797 -2.0922403
000150 af 46 d7 3f 1e 59 f9 3f 79 71 c0 bf ec 21 f3 3f
       1.6818446 1.9480321 -1.5034629 1.8994727
000160 08 dd e6 3f 5a 48 d9 bf 0f ee e4 bf 70 f0 ca 3f
       1.8036203 -1.6975205 -1.788515 1.5854626
000170 87 c9 e8 3f 23 75 ce 3f ea 0e 07 c0 07 fa 05 40
       1.8186501 1.6129497 -2.1102853 2.0933855
000180 42 5b ec bf c4 70 ea 3f
       -1.846535 1.8315663

layers.1.bias f4 [2]
000000 43 02 8c 3e 93 a6 1a bd
       0.27345476 -0.037756514
