6_27_2024_permutation_statistics/models/stat7_7.pt (torch, 3664 bytes, 4 tensors)

layers.0.weight f4 [7, 49]
1.9748048 0.7136943 0.3759521 -0.00014402944 -0.4628644 -1.1927755 -1.1124345 -1.2317635
0.6988952 0.74256486 0.69647604 0.97335786 1.0391127 -2.426925 -0.8105059 -1.1664716
-0.38743588 -0.45133394 -0.36817512 1.3707696 2.2059832 0.77059066 -0.21233153 -0.471838
0.9603059 0.49533224 -1.8208108 0.7065425 0.68735266 0.41303086 -0.57038623 -0.8429131
0.9062461 0.44125798 -0.6810198 -0.8631418 0.62262803 0.76881355 -0.06429193 -0.40089333
0.29249138 -0.18245652 -0.48787516 -0.78682786 -0.038159695 -0.073728524 -0.36316597 -0.06508988
2.0947404 -0.34066793 -0.0977677 0.27313736 0.3194561 0.43020502 0.10292383 -0.7979006
0.6956965 1.0365658 0.38719574 -0.20385048 -0.9133961 -0.88728327 -0.44239163 0.41278902
-1.2687756 -1.285894 -0.36121517 0.07088249 1.3581815 1.3257028 -1.1115229 0.16907725
1.2291054 0.8234581 0.74797547 -0.6872613 -1.4718736 1.3235309 0.9355572 -0.52489835
-0.9906371 -1.1566641 -0.9476547 1.0957165 -0.58521515 -1.0074795 -0.8118246 0.20743527
0.5971084 0.832189 0.49118853 -0.5236137 0.046551477 0.41460747 0.1268166 0.08897311
-0.2314156 -0.32335895 0.10310328 0.48131537 0.6322571 1.0844883 0.7703804 0.0007242881
-1.0361842 0.38067654 -0.36471173 -0.007659022 0.817053 1.1568238 -0.17540054 0.043160014
0.8113451 0.05145875 -0.6552769 -0.44593292 -0.63647664 1.0264335 1.9978632 0.084479086
0.49488094 0.3035954 -0.796778 1.0549347 1.2387826 -0.28822795 0.69038737 0.504768
-0.069927625 0.51198673 -0.39723656 -0.20370477 0.8873622 -0.23973455 0.79960376 1.381065
0.39015755 0.18076383 -0.30562112 0.05649218 -0.1490678 -0.030668499 0.5632568 0.72248584
-0.0688198 0.61230516 0.34272078 0.27130216 0.18834278 0.33416718 0.37310705 0.17358531
-0.07421322 0.34659776 -0.45052516 -0.72380567 -0.016523961 0.83140993 1.6949091 1.0740204
-0.14014971 -0.46257252 0.1895302 -0.086762644 -0.9410587 1.3809254 1.0294439 1.2041836
1.5454974 0.16715999 -1.1878759 -0.7836666 -0.6874184 1.0588249 1.6316715 -0.19546926
0.3873415 1.2339028 1.7594792 -0.18879493 -0.03472356 -1.1253532 -0.12106197 1.3256727
1.5261999 0.48693892 -0.028373023 -1.0774885 -0.2744405 1.3157215 0.3221922 0.29797736
0.03502596 -0.3627396 -0.13286695 0.3634961 -0.66313547 0.67510486 0.0077618137 -0.625585
-0.50114685 -0.044690415 0.59499943 1.2416373 -1.0116583 -0.868176 -0.83974755 0.1854827
1.1114724 -0.03647793 -0.36740535 -0.7481589 -0.5752681 0.6817328 1.2610128 -0.6351991
-0.029569322 -0.337326 0.3237292 1.0966109 -0.04703834 -0.70604825 0.45237586 -0.85656685
-0.12747496 0.8184067 -0.8422821 0.3013793 0.7262245 -0.7692238 -0.39494482 0.62866896
-0.6999858 0.26107985 0.16714573 -0.81536895 -0.3780801 0.4492348 -0.93840086 0.34426194
0.3357447 -0.32380426 -0.39290038 0.25010294 -0.082776785 -0.118312135 -0.07223142 -0.0018615562
0.34581366 0.48949885 -0.29617783 -0.256128 -0.44405502 -0.43930236 -0.3642726 0.5302484
00000000: 67c6 fc3f abb4 363f cb7c c03e 9c06 17b9
00000010: 90fc ecbe deac 98bf 4164 8ebf 6daa 9dbf
00000020: ccea 323f bb18 3e3f 414c 323f fb2d 793f
00000030: a501 853f bd52 1bc0 517d 4fbf f14e 95bf
00000040: ff5d c6be 3e15 e7be 7381 bcbe 6175 af3f
00000050: d42e 0d40 6e45 453f 706d 59be c094 f1be
00000060: 9cd6 753f 309c fd3e 5410 e9bf f8df 343f
00000070: 58f6 2f3f c878 d33e d504 12bf 27c9 57bf
00000080: bfff 673f 91ec e13e 5057 2ebf dcf6 5cbf
00000090: 8d64 1f3f f7d0 443f 7dab 83bd e441 cdbe
000000a0: 6ec1 953e e2d5 3abe c6ca f9be 8d6d 49bf
000000b0: 574d 1cbd fbfe 96bd e4f0 b9be d84d 85bd
000000c0: 3a10 0640 076c aebe 6f3a c8bd a9d8 8b3e
000000d0: c08f a33e d543 dc3e bbc9 d23d 3743 4cbf
000000e0: 2a19 323f 30ae 843f 853e c63e 2ebe 50be
000000f0: 54d4 69bf ff24 63bf 2881 e2be 1559 d33e
00000100: 3d67 a2bf 2d98 a4bf 32f1 b8be d72a 913d
00000110: e4d8 ad3f a1b0 a93f 6246 8ebf 9622 2d3e
00000120: 5353 9d3f 26ce 523f 527b 3f3f 5bf0 2fbf
00000130: 5b66 bcbf 7669 a93f ad80 6f3f bd5f 06bf
00000140: 659a 7dbf 920d 94bf 8099 72bf 7040 8c3f
00000150: a9d0 15bf 17f5 80bf bdd3 4fbf e969 543e
00000160: 19dc 183f 570a 553f 107d fb3e 8c0b 06bf
00000170: c3ac 3e3d 6e47 d43e 36dc 013e 8937 b63d
00000180: 36f8 6cbe 4e8f a5be d027 d33d f86e f63e
00000190: 9adb 213f 83d0 8a3f a637 453f 27de 3d3a
000001a0: afa1 84bf 09e8 c23e 7fbb babe 89f8 fabb
000001b0: 632a 513f cd12 943f 339c 33be 8ec8 303d
000001c0: 50b4 4f3f 69c6 523d 3ac0 27bf 5251 e4be
000001d0: 22f0 22bf 2c62 833f fbb9 ff3f 5f03 ad3d
000001e0: 0961 fd3e db70 9b3e a5f9 4bbf 1a08 873f
000001f0: 6e90 9e3f 9d92 93be 3abd 303f 7a38 013f
00000200: 3736 8fbd 9011 033f 9762 cbbe fc97 50be
00000210: 2b2a 633f f97c 75be d5b2 4c3f bdc6 b03f
00000220: bbc2 c73e 271a 393e 5f7a 9cbe 5864 673d
00000230: 3ba5 18be 813c fbbc 9931 103f d5f4 383f
00000240: 65f1 8cbd 08c0 1c3f 1979 af3e 1ee8 8a3e
00000250: eedc 403e f617 ab3e e307 bf3e 59c0 313e
00000260: 1afd 97bd 4375 b13e 3cab e6be 544b 39bf
00000270: 425d 87bc 48d7 543f c8f2 d83f 8079 893f
00000280: 6883 0fbe 4ed6 ecbe 3414 423e 9db0 b1bd
00000290: 39e9 70bf 2ac2 b03f d1c4 833f b022 9a3f
000002a0: dcd2 c53f fd2b 2b3e 510c 98bf 609e 48bf
000002b0: a7fa 2fbf 9387 873f 9dda d03f 1829 48be
000002c0: a051 c63e 87f0 9d3f 9d36 e13f 7553 41be
000002d0: 4b3a 0ebd 930b 90bf 57ef f7bd a5af a93f
000002e0: 855a c33f 0f50 f93e 8b6e e8bc 25eb 89bf
000002f0: 7783 8cbe 9069 a83f 60f6 a43e 7d90 983e
00000300: 6277 0f3d 01b9 b9be 460e 08be 291c ba3e
00000310: 3fc3 29bf acd3 2c3f d056 fe3b 5726 20bf
00000320: 294b 00bf 4c0d 37bd e251 183f f9ed 9e3f
00000330: 057e 81bf c840 5ebf b2f9 56bf 2def 3d3e
00000340: ba44 8e3f e269 15bd 8e1c bcbe 5787 3fbf
00000350: c544 13bf 0a86 2e3f de68 a13f 699c 22bf
00000360: 5d3b f2bc feb5 acbe d5bf a53e bf5d 8c3f
00000370: 46ab 40bd 94bf 34bf cf9d e73e f747 5bbf
00000380: cc88 02be 1a83 513f cd9f 57bf 634e 9a3e
00000390: d9e9 393f daeb 44bf 3536 cabe 73f0 203f
000003a0: 4532 33bf 42ac 853e 4028 2b3e 05bc 50bf
000003b0: b793 c1be 1b02 e63e 0a3b 70bf 1a43 b03e
000003c0: bbe6 ab3e acc9 a5be 3d2a c9be 7e0d 803e
000003d0: e086 a9bd a24d f2bd 11ee 93bd 76ff f3ba
000003e0: 7d0e b13e 989f fa3e 9fa4 97be 3623 83be
000003f0: 2e5b e3be 3dec e0be f081 babe 5cbe 073f

layers.0.bias f4 [7]
0.3956819 -0.019200403 2.0668352 1.9938208 -0.43618762 0.037097674 0.85662323
00000000: d196 ca3e 2a4a 9dbc 0747 0440 8535 ff3f
00000010: fc53 dfbe bbf3 173d a94b 5b3f

layers.1.weight f4 [7, 7]
3.0057697 -0.14935793 -2.377483 -2.2876017 -0.1219327 -0.6331306 -1.4100856 2.515398
-3.8122504 2.1375673 -4.0697193 -1.422132 5.2745686 1.276645 1.1742778 0.7908334
0.66033524 -0.2209078 -1.3976556 1.4360381 1.9433323 0.21348523 1.8741785 0.47875792
0.76537246 -0.6393873 0.17712815 1.4107339 -0.8809851 2.734842 0.52928114 1.6180602
-0.06976561 -1.1246505 0.6048506 -5.0283256 -1.5594807 2.3823822 2.6445496 3.827117
-4.5750546 -3.7488334 -0.95628166 0.18859781 -3.3758652 2.3998055 -0.71718895 -1.3507144
-0.39919144
00000000: 885e 4040 49f1 18be ae28 18c0 1168 12c0
00000010: dab7 f9bd d914 22bf af7d b4bf 48fc 2040
00000020: e9fb 73c0 e7cd 0840 243b 82c0 6c08 b6bf
00000030: 44c9 a840 1a69 a33f bc4e 963f 0f74 4a3f
00000040: bb0b 293f a835 62be 61e6 b2bf 19d0 b73f
00000050: 1dbf f83f df9b 5a3e 15e5 ef3f c21f f53e
00000060: 73ef 433f e3ae 23bf 1561 353e ee92 b43f
00000070: 3d88 61bf a707 2f40 f87e 073f 991c cf3f
00000080: 46e1 8ebd 8cf4 8fbf 7dd7 1a3f 0be8 a0c0
00000090: 109d c7bf f378 1840 4d40 2940 7cef 7440
000000a0: d966 92c0 e3ec 6fc0 e0ce 74bf c91f 413e
000000b0: 2d0e 58c0 6a96 1940 b299 37bf 36e4 acbf
000000c0: d262 ccbe

layers.1.bias f4 [7]
-0.8704583 -0.93062645 0.7664961 1.5879549 1.2962881 -1.4770448 -0.98819876
00000000: 5bd6 5ebf 893d 6ebf 1739 443f 1b42 cb3f
00000010: c5ec a53f ce0f bdbf 98fa 7cbf
