6_27_2024_permutation_statistics/models/stat5_5.pt (torch, 2648 bytes, 2 tensors)

layers.0.weight f4 [11, 25]
00000000: f94e 113f 8b16 65be d660 82be 63cb a1be
00000010: 7bfd 97be 9a3f 5dbe 5ce8 203f 8627 19bd
00000020: 5f18 24be 38fc 35be 2260 a1be 9d1d e3bd
00000030: c5c8 003f 4834 83be 36cc bfbe bd7b 92be
00000040: a4f3 8ebe 64be 93be 2734 473f 1da0 aabe
00000050: 8e9a a5be 37c5 c5be 6a92 57bd 3da5 5cbe
00000060: 304e 593f 6863 013f 118b fabd 3a9b c4bd
00000070: 9b92 dbbd 58f3 a3be 6404 833b 01b7 f43e
00000080: 28f7 8fbe 524f 55be 931a b0be 258c 80be
00000090: f00c b1bd accd b8bc a224 813e 0ad2 16be
000000a0: 2b6e 2bbe b367 b1be 2021 703d b03b bebe
000000b0: 9ca5 793e b9df 51be 33a9 b3be 3e0f 8abe
000000c0: f0df 4e3e 4595 ad3e ef08 dc3e e91e 843e
000000d0: 481d 65be faa1 bcbe d859 bbbe c082 aa3e
000000e0: 5642 1f3c f373 1c3e b92b afbe f258 51be
000000f0: d359 2fbe b8a9 f0bd 0b84 41be d9a7 9a3e
00000100: b692 fb3d 2804 26bd 98c9 71bc 582d 703d
00000110: 6e15 03be bdb8 023f e1ea c7be e58f c7be
00000120: a175 293d f7df 813e c151 503e 4f71 6a3e
00000130: 5df1 ad3e 55a5 0ebe d0c0 23bd a06d 79be
00000140: 98da 6e3e 10d4 85be bf80 ca3e 88be 2fbe
00000150: 4e65 3a3d f50c c6bb 5c13 233e 8d8c 9bbe
00000160: 27f0 aebd d78c 5c3e 62be 5bbd a174 77bd
00000170: fc15 773e 2cf1 3ebe 12aa 0f3e 54b6 babe
00000180: f01a bcbd 3d5a 9b3e 2e7b 1d3e e1b5 9e3e
00000190: 2cb6 113e 6049 3d3e 7984 063e a6f0 f83c
000001a0: 4e92 00be 4dfd 843e 1b99 79be 549c 363d
000001b0: 7eb5 62bd f0c7 45be 09e0 d23e ce74 30be
000001c0: cf60 9abe f707 8fbd 0e00 a03e d952 54be
000001d0: 528e a93c dc68 23be 85b6 39bd 143a 873e
000001e0: 9f22 57be 45c0 0abe ab0b 8e3e 379a 193e
000001f0: 577e 493d e3a1 013c 842d d33d 8d18 bd3e
00000200: 7faa 81bc ca91 bbbe 651e 723e 05ee 51be
00000210: d85f 18be 28f6 563e a435 9d3d 176c 913e
00000220: 3fb8 c1bc af36 d43c 402b 3dbe 4f97 533c
00000230: e722 323d 228a b3bd 849f 42be 1249 9f3d
00000240: b940 0b3e 8094 c7bd 0bd8 bf3d 3e84 b83e
00000250: 6dca 2abd 9452 48be 2b66 d2be daab 85bc
00000260: b23f ef3d 39e5 8e3e c6b3 b93c 7cf5 163e
00000270: 5cb1 283d 6634 fabd d2bb 24bd 3340 663e
00000280: 50d2 b43d 7b80 023e ed38 a6be 8162 28bd
00000290: 695a 963e 95d4 8c3e 04d2 d93d 2348 bebd
000002a0: 83b9 7d3e ceda dd3d 92a9 84be f723 ae3e
000002b0: 6892 293e ebd4 34bd 7374 20be 961d b0be
000002c0: 3157 59be 6fad 3e3e 0e2a 0b3e 9e62 993e
000002d0: 41d1 96bd 49d7 6a3e 0a1e 693e df20 04bd
000002e0: ede1 c73d ad34 5b3e cfbf 43be 1bc5 d9be
000002f0: 80af 6e3e 954c aa3d f77d 6d3e 1f18 1b3d
00000300: dbff a13e 5e63 fd3d 5517 c6be 1023 96bd
00000310: 6d76 0e3e a92b a93d f7a2 91be 57ab cdbe
00000320: f93e 52be e1c2 2cbe e436 c23d dc77 e03e
00000330: 62b4 e23e f80b 40be 0eec 48be d6b5 d43e
00000340: e68f 35bd fd96 2f3e 10d5 01be e667 cb3e
00000350: e2aa abbe 185a 273e 53a0 ebbd 5f80 683e
00000360: 365c dfbc 2d5d 803e 67b1 49bd 0388 cdbe
00000370: 7f72 ca3e 44af 8c3e c76c 4a3d 02d1 88be
00000380: 76d6 0cbe 6131 93be a2ad 78be 4834 abbe
00000390: beb9 8c3e 8b81 233f 9cc1 f0bd aa6a 77be
000003a0: 700a 523e 43b6 a73e d7df b93d df5a 95be
000003b0: 7e94 953c 0510 783e 8683 2c3e e21a 4fbe
000003c0: a4b1 4a3e 3f3e 223e ce38 4e3e 2e34 a6be
000003d0: b17b 55be c810 3a3f faa2 db3d 6c35 47be
000003e0: 49d3 d0bd 0e1c 0dbe 8ddc 35be afa6 e23c
000003f0: c79a c23b c9bc 90be 08c7 303f b65e 02be
0.5676113 -0.2237188 -0.25464505 -0.31600484 -0.29685578 -0.21606293 0.6285455 -0.037391208
-0.16024922 -0.17771995 -0.31518656 -0.11089633 0.5030635 -0.25625825 -0.37460488 -0.2861003
-0.27920258 -0.28856194 0.77813953 -0.33325282 -0.32344478 -0.38627025 -0.052629866 -0.21547408
0.8488493 0.50542307 -0.12233556 -0.095999196 -0.10721322 -0.32021594 0.003998326 0.4779587
-0.28118253 -0.2083104 -0.34395275 -0.25106922 -0.08645046 -0.02255901 0.2522326 -0.14728561
-0.16741244 -0.3464943 0.05862534 -0.37154913 0.24379581 -0.204955 -0.35090026 -0.26964754
0.20202613 0.33902946 0.42975566 0.25804833 -0.22374451 -0.36842328 -0.36591983 0.3330288
0.009720406 0.15278606 -0.34213045 -0.20444086 -0.17124109 -0.11751121 -0.18898027 0.30206183
0.12283842 -0.040531307 -0.014757536 0.058636993 -0.12801144 0.5106314 -0.39046386 -0.3897697
0.041371945 0.25366184 0.20343687 0.22894786 0.33973208 -0.13930257 -0.039978802 -0.24358225
0.23325574 -0.26138353 0.3955135 -0.17162526 0.045506768 -0.006044025 0.15925354 -0.3038067
-0.08541899 0.21538101 -0.05364836 -0.06041396 0.2412948 -0.18646687 0.1402972 -0.3646723
-0.091848254 0.30342284 0.1537902 0.30998138 0.1422965 0.18485022 0.13136472 0.030388188
-0.12555811 0.25974503 -0.24374811 0.04458268 -0.055348866 -0.19314551 0.4118655 -0.17232057
-0.30151984 -0.06983941 0.31250042 -0.20734729 0.020697746 -0.1595797 -0.04534008 0.26411498
-0.210093 -0.13549908 0.27743277 0.15000235 0.049192753 0.007912132 0.10311416 0.36932793
-0.01582837 -0.36634666 0.23644407 -0.20500953 -0.14880311 0.20992339 0.07676247 0.28402779
-0.023647426 0.025904981 -0.1847353 0.012914493 0.043490317 -0.08766581 -0.19006163 0.07777609
0.13598908 -0.09745121 0.09367379 0.36038393 -0.041696955 -0.19562751 -0.41093573 -0.016317297
0.11682071 0.27909258 0.02266873 0.14742082 0.041184768 -0.122170255 -0.040218182 0.22485428
0.088291764 0.12744324 -0.32465306 -0.041109566 0.29365852 0.27505937 0.106357604 -0.09291103
0.24777798 0.10832749 -0.25910622 0.34011814 0.16559756 -0.044148367 -0.15669422 -0.34397572
-0.21224667 0.18620847 0.13590261 0.2995805 -0.07364131 0.22933687 0.22765365 -0.03225791
0.09759889 0.21406813 -0.19116138 -0.42533192 0.23309135 0.08315388 0.23192583 0.0378648
0.31640515 0.123724684 -0.38689676 -0.073309064 0.13912363 0.08260281 -0.28444645 -0.40169784
-0.20531835 -0.16871215 0.09483126 0.43841445 0.44278246 -0.18754566 -0.19621298 0.4154498
-0.044326685 0.17147441 -0.12678933 0.39727706 -0.3352881 0.16342962 -0.11505189 0.2270522
-0.02726565 0.25071087 -0.04924145 -0.4014283 0.3954048 0.27477467 0.049420144 -0.2672196
-0.13753685 -0.2874861 -0.24284986 -0.33438325 0.2748546 0.6386954 -0.11755678 -0.24161783
0.20511794 0.32756242 0.09075897 -0.29170892 0.018259283 0.24224861 0.16847047 -0.20225099
0.19794327 0.15844058 0.20138857 -0.32461685 -0.20847966 0.72681856 0.10724445 -0.19453973
-0.101965494 -0.13780233 -0.17759915 0.027667372 0.005938861 -0.28269032 0.690537 -0.12731442

layers.0.bias f4 [11]
00000000: 8508 38be 66bb 8abd 1312 2b3d 93a0 cf3d
00000010: 3f25 bb3e 9864 7f3e c45c 363e ef87 603e
00000020: f3c7 293e 7eab a5bd 37d1 83be
-0.17972 -0.06774025 0.041765284 0.10138049 0.36551854 0.24940717 0.17808825 0.21926855
0.16580181 -0.0808935 -0.25745556
