6_27_2024_permutation_statistics/models/stat9_7.pt (torch, 9360 bytes, 4 tensors)

layers.0.weight f4 [35, 49]
00000000: a79d a13e eb78 2d3e ec00 c43d e784 05bf
00000010: 426c afbe 7674 d23d 4262 7f3d bc71 973e
00000020: 3792 ba3e 02f9 0abf 49e0 d4be c121 9a3e
00000030: b497 7abe d4e1 e23d b9da 3a3e 526c 9abe
00000040: 6192 adbe 3ce3 b23e cded 5abe 01b0 0f3e
00000050: b8fc ac3d 9501 cbbe 6395 abbd 2dea 663e
00000060: 93bb febd 1dbb a83e 613a aa3d fb6c 5fbd
00000070: 1cfa 06be fd75 0f3e 3f39 1d3e 6c12 4f3e
00000080: 3060 e0bc c70f adbe 2cf1 03bf 2995 54be
00000090: 00b6 7cbe 848f 9c3e e877 e13e a58a afbd
000000a0: c8e1 09be 4920 6a3d 7213 3cbe 1e26 4fbe
000000b0: d815 d33c 97cb 0fbe 4600 843d 7aba 443e
000000c0: 69ca 823e a2c1 20be c8ea 963b c64b a63e
000000d0: c457 0abf c5a8 f03c 0836 a03e d94e c43d
000000e0: fbf7 8e3d dd07 68be 2b4c 893e d8b7 973e
000000f0: feb8 d0be 4a8d efbe 2577 ac3e c6c9 973d
00000100: bb98 63be e474 a83d 36b1 823d 7b85 1e3f
00000110: ad54 edbe ba5a a73d 599a 1f3e 5da2 0f3e
00000120: 37aa 8b3e 17fc 093d 55ee de3d e94a 85be
00000130: 63c5 01bf 0a6d 1dbf 2011 01be fb12 cdbe
00000140: e450 0bbe d0eb 2e3e 214b 643f d4ea b83e
00000150: 0a00 94bc c61a f13e 26fb 3f3e 0c7f 953e
00000160: 69b6 2bbf 6cb9 26be 7a53 efbb 8db0 833e
00000170: 49ed 193d 0bda 7bbe 24a3 5b3c d0a7 a23d
00000180: bc97 9c3c e3ee 3bbe fe7f b3be 1afc b53e
00000190: 6809 e1bd f9db 36be 1607 79bc 98e9 373e
000001a0: 51f3 833e bfd5 b4be 4078 c83e 1a35 42bd
000001b0: c7d8 7e3e 73ee 543d da37 96be 98b9 a23e
000001c0: dafe 71be 4e6c 9e3e 8289 ca3d 0f8a c0bd
000001d0: 54fb 3f3b 4943 813e 7eb4 9ebd b307 8d3e
000001e0: 3e85 84be a55d 803e 49f3 cf3d 7660 173c
000001f0: 7876 e7be ee2f b63d f2ef 483e 9af0 e3be
00000200: f6cd 7c3b 3fa7 2abc a2bd 1f3e d5db ef3a
00000210: 5601 07be 214e c73e 8174 38bd 61c4 833e
00000220: 7fe0 583c 8034 a3bd 0ff5 e53d fd28 82be
00000230: a8b5 883b 4c1f b9be 457e eabc 028f 5c3e
00000240: 6f28 153d 48d7 e13d d3dd 37be 4207 16be
00000250: 01be 8dbc 2191 2b3c cd93 35bd 8354 713d
00000260: 75c5 51be 6295 683d 24ad adbd dc00 34bc
00000270: 1503 403b e5ce 943d d72e 523d 9435 b1bd
00000280: 44e7 e53d a0e5 533d 7ae7 543e 41a6 993d
00000290: 2d44 4a3e 49ee 0dbe 2cab 1abe 783f 4c3e
000002a0: 8d2e 66be 6632 48bd 583e 2abe dfea 7e3e
000002b0: d3b8 473e 0c73 11be b4c1 3d3c 8760 253e
000002c0: 0737 ed3a a3c8 38be 3800 04be 3c4b e13d
000002d0: 1548 793d 0b98 ef3c 9d0e f63d dfd9 82bc
000002e0: 3ea6 d53d 3006 fbbc 083d 663e f41d 423e
000002f0: 4277 6bbe 4df0 fdbb f21f f2bd 89a0 5a3d
00000300: 1e2a bdbd e4c7 4bbe c5ec 2e3e 048f 153d
00000310: 9d3a 493e 531d 50bf f2c7 4e3d 3559 193c
00000320: 3a7b 793e 25ee 8e3e 32a4 c33e 78ae 113f
00000330: 4bff 393f 4ea2 c83e 5635 61be 17e6 84be
00000340: 01a9 71bf f4d8 a0be c984 53bf 4625 1abf
00000350: a1db 6b3e 5ad5 053f 866d 093f 0a35 73bc
00000360: d0aa e23e 6b20 4e3d ffd7 813d 3a55 e1be
00000370: 06c1 133e 01e2 a33e 21c3 a63e 1bba c7bd
00000380: bc1f acbe 4a73 073f afd1 02bf 40bd 39be
00000390: ae0f 0a3d 5f2f d73e 4464 113e 09f7 343e
000003a0: 347a c83e 60c9 703d 8c1f 7dbe 928c 9dbe
000003b0: 7c00 343e a631 9bbe 6238 383e de05 29bd
000003c0: e79a ac3d e23f b03d 02ca 85be ef6c 1a3e
000003d0: df91 903d 5f54 543e 01de 53be e86e 463d
000003e0: 31b1 09be 4f08 8e3e 656c b63c bdab 2abe
000003f0: add7 603e d73e b8bd 21bf d53e a7c9 143e
0.31565592 0.16940658 0.09570488 -0.5215592 -0.34262282 0.102761194 0.062349565 0.2957896
0.36439678 -0.54286206 -0.41577366 0.30103877 -0.24471933 0.110782295 0.18247499 -0.30160767
-0.3390074 0.3493899 -0.21379776 0.14031984 0.0844664 -0.39649644 -0.08378103 0.22550268
-0.12438121 0.32955256 0.08311916 -0.05454729 -0.13181347 0.14009853 0.15353869 0.20221871
-0.027389616 -0.338011 -0.51539874 -0.20760025 -0.24678802 0.30578244 0.44036794 -0.08571366
-0.13465035 0.057159696 -0.18366793 -0.20229384 0.025767252 -0.14042507 0.06445365 0.1921176
0.25545052 -0.15698865 0.004605625 0.32479686 -0.5404017 0.02937735 0.31291223 0.095853515
0.06980892 -0.2265925 0.26815924 0.2963245 -0.40766138 -0.46787483 0.3368465 0.07411532
-0.22226231 0.0822542 0.063814566 0.61922425 -0.46353665 0.081716016 0.15586223 0.1402678
0.272783 0.033687677 0.10885302 -0.26033714 -0.50691813 -0.61494505 -0.12604189 -0.40053543
-0.13605076 0.17082143 0.8917714 0.3611666 -0.018066425 0.4709074 0.1874815 0.29198492
-0.6707521 -0.1628167 -0.0073036524 0.25720635 0.03757981 -0.24594896 0.013405595 0.07942164
0.019115321 -0.18352847 -0.35058588 0.355439 -0.10988122 -0.1785735 -0.015199443 0.17960203
0.25771573 -0.35319325 0.39154243 -0.047413923 0.24887381 0.051985215 -0.29339486 0.31782222
-0.23632374 0.30942005 0.09889509 -0.094013326 0.002929409 0.25246647 -0.0774927 0.27544937
-0.25882906 0.25071445 0.10153825 0.009239307 -0.45207572 0.088958606 0.19622782 -0.44519502
0.003857491 -0.010415851 0.15599683 0.0018299768 -0.13184103 0.38926795 -0.04503298 0.25735763
0.013237118 -0.07968998 0.11228382 -0.25421897 0.0041720457 -0.3615669 -0.028624663 0.21538928
0.036415514 0.1102739 -0.17955713 -0.14651206 -0.017302515 0.010471613 -0.044330407 0.058918487
-0.2048548 0.056783088 -0.084802896 -0.010986533 0.0029298712 0.072660245 0.0513142 -0.08652797
0.11225751 0.05173266 0.20791426 0.075024135 0.1975257 -0.1386043 -0.1510436 0.19946086
-0.22478695 -0.04887619 -0.16625345 0.24894284 0.19504099 -0.14204043 0.011581827 0.16150104
0.0018098064 -0.18045287 -0.12890708 0.11000678 0.06085976 0.029247304 0.12014506 -0.01597303
0.10432099 -0.030642599 0.22484219 0.18956739 -0.22994712 -0.0077495934 -0.11822499 0.053375755
-0.09236549 -0.19900471 0.17082508 0.036513343 0.19651265 -0.81294745 0.05048365 0.0093596475
0.24363413 0.27916065 0.3821121 0.56906843 0.7265517 0.3918633 -0.21993002 -0.25956795
-0.94398504 -0.31415522 -0.8262449 -0.60213125 0.23033 0.52278674 0.53682745 -0.0148441885
0.44270945 0.050323885 0.06340026 -0.44010335 0.14429101 0.32008365 0.32570747 -0.09752294
-0.3361796 0.5291029 -0.511012 -0.181386 0.03370636 0.4202833 0.14198405 0.17672361
0.39155734 0.058785796 -0.24719065 -0.3077131 0.1757831 -0.30311316 0.17990258 -0.04126536
0.08427983 0.08605935 -0.26130682 0.15080617 0.07059073 0.2073531 -0.20690157 0.048445612
-0.134465 0.27740714 0.022268483 -0.16667075 0.21957274 -0.08996361 0.41747382 0.1453005

layers.0.bias f4 [35]
00000000: 8e91 f73d 1f14 cd3d 2fdd cfbd 2fa1 9a3d
00000010: 772e 4c3e bd53 59bc e3c3 863e 2ab3 fdbd
00000020: 2f4d 91bd 83ab 02bd 4ea2 87be 1de1 d9bd
00000030: e94f 083a 98de 023d 208f 42be adf8 ab3e
00000040: 4c8d 00bd 8d61 38be cef5 b7bd 389b a2bc
00000050: f5d9 703d 974e 7b3e 9fce 75bd 3502 153e
00000060: 6a3d 4d3e a44d c9bd cbf6 2f3d f466 133e
00000070: 3f00 2f3d df70 4a3c d23e 59be a392 8e3f
00000080: af0c 9b3e db1c 85bd 2235 413b
0.12088309 0.100136034 -0.10149609 0.075502746 0.199396 -0.013264594 0.26321325 -0.123876885
-0.070948 -0.031901848 -0.26491016 -0.1063864 0.0005199896 0.031950563 -0.1899991 0.33588162
-0.03138475 -0.18005963 -0.089824304 -0.019849405 0.05880161 0.24541698 -0.060011502 0.14551623
0.20042959 -0.09829262 0.04295997 0.14394742 0.042724844 0.012356012 -0.2121537 1.11385
0.30283114 -0.06499644 0.0029481133

layers.1.weight f4 [2, 35]
00000000: faec 8cbf 0d92 cb3f d89b 693f 687d c23e
00000010: da8c ef3f e000 8d3f 5be5 1240 99db 51bf
00000020: d1a3 33bf 43a5 8b3f c07c 09c0 f731 a8bf
00000030: ff75 323f 84e0 b9bf d508 e9bf 38bb ac3f
00000040: 8137 933f 1cc5 0ac0 edb1 fa3e 8701 0abf
00000050: 3244 8c3f 169e 403f 6fca 8f3e 87f2 703f
00000060: 3adb 1140 4fc2 5abf 3fb5 a43f 9fa0 93bf
00000070: ea40 913f defb 98bf 2fb9 11c0 2434 be3f
00000080: ab4f 0040 b979 c13f 474e b5bf 816a a93f
00000090: c367 b8bf 1b54 90bf 6741 20bf 2932 e4bf
000000a0: 143c 56bf 0906 0ac0 255d 3f3f 1fe4 1e3f
000000b0: 9b51 74bf a311 1040 ce43 cd3f 87dc 4bbf
000000c0: 5767 c13f 8d99 f93f 573f cebf 072c a9bf
000000d0: f903 0e40 fbd9 f6be 4c5e 3e3f c9cc 83bf
000000e0: 1ae8 3abf 9c3b 9fbe 41b2 6ebf b3b0 0ec0
000000f0: f3c1 343f 7838 b4bf 0098 613f 8a1d 9dbf
00000100: a2fe a23f 4364 1d40 1e12 c4bf 86ff fabf
00000110: 97a3 abbf ca75 b03f
-1.100982 1.5903946 0.91253424 0.37986302 1.871486 1.1015892 2.2952487 -0.81975704
-0.7017184 1.0909809 -2.1482391 -1.3140248 0.697113 -1.4521642 -1.820582 1.3494635
1.1501313 -2.1682806 0.48963872 -0.5390858 1.0958312 0.7524122 0.28084132 0.9412007
2.2790055 -0.8545274 1.2867812 -1.1533393 1.1347935 -1.1951864 -2.2769277 1.4859662
2.0048625 1.5115272 -1.4164513 1.3235627 -1.4406666 -1.1275667 -0.62599796 -1.7827808
-0.8368542 -2.1566184 0.747515 0.62066835 -0.9543702 2.2510765 1.6036317 -0.79633373
1.5109662 1.9499985 -1.611308 -1.3216561 2.2189925 -0.4821318 0.74362636 -1.029687
-0.7301041 -0.31100166 -0.93240744 -2.2295349 0.70608443 -1.4079733 0.8812256 -1.227464
1.2733958 2.4592445 -1.5318029 -1.960923 -1.3409299 1.3785946

layers.1.bias f4 [2]
00000000: d591 243f d745 9ebe
0.6428502 -0.3091266
