6_27_2024_permutation_statistics/models/stat5_6.pt (torch, 5200 bytes, 4 tensors)

layers.0.weight f4 [15, 36]
00000000: 435d 343d e4ca 40be 2907 863d 75ae 1a3e
00000010: 2328 8c3d ce3f 853e 1946 68be 5764 b13e
00000020: c290 82bd ff64 c23e 10fd c83c e796 4c3e
00000030: 70bc ba3d f1ec d3bc 2b2e 3f3f f722 05bf
00000040: 5a2c f23e 765d b73d a90e 203e 2aa7 bb3d
00000050: 62b2 44be a348 323f a0b2 db3c 3e1a 50bc
00000060: 77e5 e03e dcf2 003e 6639 0dbe f80f 8dbe
00000070: fff6 9a3e 2d00 e9bd a3fb 29be e8a2 223f
00000080: cefa cb3d 14c1 23be 4400 a4bc 26fc 71bd
00000090: 2b63 1c3e adb0 5e3e c7a0 253e ad11 13bd
000000a0: 1515 623d 2b22 e3bd f271 073e 85d2 753e
000000b0: 9e8a a7bd a30a b5bd fcde a63c 0553 403d
000000c0: 8470 633d 3ded 9c3b 58f3 6e3e 39f8 38be
000000d0: 1ffc df3d 93c4 853e 159d 74bc ae03 a53d
000000e0: 5774 873d ff8c 693e 06a8 c43d 3f73 613e
000000f0: e925 293e 558d 97bc c8db 67be 9007 763d
00000100: 30c7 ac3e 3162 573e 94fb 61be 727d 213e
00000110: 80cb 853d 7ae9 93bd 6758 653e d0db 663e
00000120: 6f0a 363e 3632 723e fe8d 8dbd d397 99bd
00000130: 5bf4 30be 2f52 183e b241 5fbe d40a d93d
00000140: 57ff 78bd ba1c a63d 4ec2 91be 85e0 c3bd
00000150: ef6a fdbd 24d9 bdbc 1b44 9a3d 375b 7fbe
00000160: 6762 933e 4077 973d 14b3 bc3d 1668 803e
00000170: 9606 f13b c740 debd f295 603e 931d f63c
00000180: 8eeb e0bd b659 85be 35a0 8d3e b33d 9c3c
00000190: 2f5a 573d 4c0e 35bb e58e c13c 0e22 0bbe
000001a0: 5f08 b6bd 6573 863e a605 5cbe 2805 a9bb
000001b0: c9a6 67bf b599 cbbe 01b3 293c 1081 083f
000001c0: 93af 813f e572 0f3f e527 d5be d378 0fbe
000001d0: 44c2 7d3e 54a0 2f3e 3509 2bbe 7091 7c3f
000001e0: 4ce6 40ba e9da 283e 1f8e ea3e 4cb4 c8be
000001f0: 57c4 223e 3c90 163f a50e cb3e d925 ee3e
00000200: 3828 15bf 751e 1e3f 5c26 833d 12d8 9bbc
00000210: b54b 4a3f ab3e 9b3c 0c50 ec3e d783 c83d
00000220: eece b039 7260 4ebe 5a9e 1b3f 071a 6e3f
00000230: 12fd f93e 1189 c63d 7490 bcbe 2022 6fbf
00000240: aed7 993f 6a7f 383f 119d 93bd 1df1 d0be
00000250: 0f1a 9dbe 50b7 2bbf 9b26 4a3f af53 c43e
00000260: eb96 c93e c428 423e e9e4 11bf f412 efbe
00000270: fc6b 2c3e 6a6b c83e e2a1 0a3f 7760 263d
00000280: 9426 f93c 9429 f3be 8284 87be 4265 563e
00000290: 888a 653d d00a f63e 7a95 d03e 30e5 d6bc
000002a0: 5299 f0be a2b9 1cbf eec0 e4bb b0d9 803e
000002b0: fb04 f43e 12c8 1d3f 92b2 9dbe a744 ddbe
000002c0: 5d17 cebe 3a92 b83b 39a6 523f 72cf 903f
000002d0: 803d 2fbd 4078 7abd 3c81 14be 5b4b 3dbe
000002e0: b9ae 6abd bd52 183f e945 38be 10c4 a0be
000002f0: 9d97 27be b2f3 dd3d d3e6 423f 936c b33d
00000300: 1ddd afbb e2c5 32bd 8fea 833d 581a 023f
00000310: 94f1 263e 3381 05be 0304 20be 7dcc f23c
00000320: 5fe1 283f 5f67 cbbd 5e47 c8bd e17b 8e3b
00000330: 82ea c33d 6405 343f 0894 a9bb c5fa 85be
00000340: a277 e6be c08a 0d3d 99d7 003f 73a5 cd3c
00000350: cfed 0a3b 59be 89bd 87ee 6dbe 1b04 a73c
00000360: 7998 753e bea0 04be 1e7d c73e ed79 473e
00000370: 70aa 25be a072 75be 93d1 9f3e 7e13 05bc
00000380: a143 11be d1d3 85bb e530 973e b862 333d
00000390: ea95 6b3e fac8 62bd 6cff 86be 55df 75be
000003a0: 60b9 313d 0ab6 7f3e 8fe7 0b3e b404 913e
000003b0: 5046 5d3c 10b0 1bbd 438c 09be 1e02 8b3e
000003c0: be3f 13be 10df 3f3c 298a a23d 47de a5bd
000003d0: 52b4 04bd 52bd 8bbd 10f5 93be be84 603c
000003e0: 3d9a 863e 62e2 c93e 08ae 673e 9943 163e
000003f0: 4b53 8a3f 0d28 c13e c3b4 943d c028 5cbe
0.044034254 -0.18827397 0.065443344 0.15105613 0.06843593 0.26025242 -0.2268299 0.34646866
-0.063752666 0.3796768 0.024534732 0.1997944 0.09117973 -0.025869818 0.7467982 -0.5200648
0.47299463 0.08953373 0.15630592 0.091627434 -0.19208673 0.69642085 0.026818573 -0.012701569
0.43925068 0.12592643 -0.13791427 -0.27551246 0.30266568 -0.11376987 -0.16599898 0.63529825
0.099599466 -0.15991622 -0.020019658 -0.059078358 0.15272205 0.21747084 0.16174613 -0.03590553
0.055195887 -0.110905014 0.1322706 0.24006088 -0.08180736 -0.088399194 0.02037 0.046954174
0.055527225 0.004789023 0.23335016 -0.1806344 0.1093676 0.26126537 -0.014930029 0.080573425
0.06613987 0.22807692 0.096023604 0.22016619 0.16518368 -0.01850001 -0.22642434 0.060065806
0.33745718 0.21033551 -0.22068626 0.1577051 0.06532955 -0.072222665 0.22397004 0.2254479
0.17777418 0.23651966 -0.069118485 -0.07499661 -0.17280714 0.148751 -0.21802405 0.105977684
-0.060790386 0.08110948 -0.28468555 -0.09564308 -0.123739116 -0.02317483 0.07532521 -0.2493714
0.28786013 0.07395792 0.09213844 0.2507941 0.0073555214 -0.10852199 0.219322 0.030043399
-0.109824285 -0.26045007 0.2766129 0.01907239 0.05257624 -0.002762693 0.023627708 -0.1358721
-0.088883154 0.26259914 -0.2148653 -0.0051580854 -0.9048887 -0.39765707 0.010357619 0.53321934
1.0131706 0.5603469 -0.41632 -0.14010935 0.24781138 0.17151004 -0.16702731 0.9865942
-0.00073585357 0.16489758 0.45811555 -0.39200056 0.1589521 0.58813834 0.3965961 0.4651325
-0.58264494 0.61765224 0.06403801 -0.019023929 0.7902177 0.01895078 0.4615482 0.097907715
0.0003372351 -0.20153978 0.607885 0.93008465 0.4882589 0.09694112 -0.3682896 -0.93411446
1.2018945 0.7206942 -0.072076924 -0.40808955 -0.30683944 -0.6707659 0.7896516 0.38345096
0.39372954 0.18960863 -0.56989914 -0.46694148 0.16838068 0.3914445 0.54153264 0.04061934
0.030413903 -0.4749266 -0.26468283 0.20937064 0.056040317 0.48055124 0.40739042 -0.026232332
-0.46991974 -0.61220753 -0.006981007 0.25166082 0.4766005 0.6163341 -0.308003 -0.4321644
-0.402522 0.005632666 0.82284886 1.1313307 -0.04278326 -0.061149836 -0.14502424 -0.18485777
-0.057295535 0.5950125 -0.17995419 -0.31399584 -0.1636643 0.10837497 0.7613346 0.08760943
-0.005366935 -0.043645747 0.06441223 0.5082145 0.16303092 -0.13037567 -0.1562653 0.029638523
0.6596889 -0.09931826 -0.09779237 0.0043482636 0.09566213 0.70320725 -0.0051751174 -0.26167884
-0.45013148 0.03455615 0.50328976 0.025103306 0.0021198874 -0.06725759 -0.23235522 0.0203877
0.23983945 -0.12951943 0.38962644 0.19480105 -0.16178298 -0.23969507 0.3121458 -0.008122323
-0.14185955 -0.0040840884 0.2952949 0.043795317 0.23006406 -0.055367447 -0.26366746 -0.24010976
0.043389678 0.24971786 0.13662551 0.283239 0.013505533 -0.038009703 -0.13432412 0.27150053
-0.14379784 0.011710897 0.07936508 -0.08099037 -0.03239853 -0.06823219 -0.28897905 0.013703523
0.2628955 0.3943053 0.22624981 0.14674224 1.0806669 0.3772587 0.0726104 -0.2149992

layers.0.bias f4 [15]
00000000: 032e f03e d84a e33e 61d7 07bd d43b 673f
00000010: b6f8 2f3f 13d2 c93d 6a83 963e a89c 7a3e
00000020: 26be 1ebd 3033 673f c1ef fcbd 3413 48be
00000030: 11fd bebd bd50 303e 4cfb df3f
0.46910104 0.4439304 -0.033164386 0.90325665 0.6873888 0.098545216 0.29397136 0.24473822
-0.03875556 0.9031248 -0.12350417 -0.19538575 -0.09325612 0.17218299 1.7498565

layers.1.weight f4 [16, 15]
00000000: 0068 0d3f 50fc 033e 71bc ecbd d682 4bbf
00000010: 449f 7f3f f27c 9ebe cd59 84be e9fb b73f
00000020: a4d0 cabe 4107 17bf e6da 383e 218d a8be
00000030: 9c7b d4bd 9cae 233f 3c16 e9bf b49d c8bd
00000040: 0514 093e e678 bbbe efff f9be d5d1 a43f
00000050: 8087 afbe 0ba3 80be a2fe 8a3f 1ea6 9d3e
00000060: 8380 3abf 298c 243e 59e4 2e3f 2bd6 15bd
00000070: 086d 23bd 1185 e3be 13e3 4abf 384e 343c
00000080: d5c0 c53d 1428 4dbf 7375 a03f 5d4d 8dbe
00000090: 2aeb a9bd 63ef 2f3f 5ba5 e7be c047 a2bf
000000a0: 469c 3e3e 8117 ffbe 1324 28bd fef7 893d
000000b0: b910 d33e 3149 27bf dea6 553e 11d7 933e
000000c0: 501e 68bf e028 893f f249 cfbd 7cf6 3d3d
000000d0: dfc6 b93e 1951 033e 8732 84bf e896 803c
000000e0: 9677 c73e 147d 213c b28c acbe 61f4 293f
000000f0: e7e3 03bf e4a1 39be b586 313e 264c 9fbf
00000100: b94d 2e3f b87e afbd a82f bf3e f12d 103e
00000110: 81a5 74bd 0312 57bf 2ca2 713e 7326 e6bd
00000120: 354a a23e 2c77 a0be a018 933f de00 673e
00000130: d129 773e 5823 8f3e 0e8d d8be fbc6 0b3f
00000140: dcf3 07be 7e71 b33e 4b66 57be 04bf 2d3e
00000150: 8cb3 5dbf 2144 11be 9318 ce3e 27c3 61be
00000160: 39d3 d6be e496 823f 3a34 ef3e e3a6 b23d
00000170: e6a8 3bbe 3e0d 933d f2ed 4c3e c275 51bc
00000180: b2de dc3e a05f 88be 613f e0bd 519c 58bf
00000190: 284d 7f3d eb9d 803e 429e adbd deef 7dbd
000001a0: 3dc0 7c3f 62ba d23d 6117 003f b978 173e
000001b0: 5295 d13e d4a8 52be 277c 3d3d 4c79 ee3e
000001c0: b208 53be 6980 5ebe 57e2 03bf e2b4 eb3d
000001d0: fc60 f3bb 42bc 55bd 0e27 933e 902e 653f
000001e0: e53a 833e c85f 8ebd 8a19 833e 5ede ea3e
000001f0: 86d1 a7be 19ee c5bd 43af 173d 99f0 cfbe
00000200: aadc afbe d52e a0bd a2cb 32be 42e3 22be
00000210: 0abb 53be 4b21 473e 67c3 643f d505 713c
00000220: f22b 9e3e c1be 603e 19d6 b73e 939a 33bf
00000230: d9ef 8bbd b1f2 b93d d281 8abe 4414 29be
00000240: 4094 093f 3560 b53e 0313 3ebe 73e4 3fbe
00000250: 8e0a 1dbe b715 2c3f efe8 603e 2690 203e
00000260: 9a6b 27be 50b8 1c3f eb08 1fbf a3d4 86bd
00000270: 6650 b4bc a086 25bf fd23 5b3e e63c 503f
00000280: c95b 713e e375 e03d 0e27 463e f6f0 cfbe
00000290: eefb b83e d625 853e e037 9abe 7820 91bd
000002a0: 77bc 8d3f efaa e4be b3f0 d8bd a4b4 9ebe
000002b0: 9486 08bf 25c5 df3e 3e47 823f 8a5e 803e
000002c0: eea7 313e 32c2 12be 82d5 22bf e9d5 1ebe
000002d0: 079a 503e cb4c dfbd ac61 bd3e bdef 9c3f
000002e0: 0445 2dbf a572 473d 1cb3 f0bd b241 41bf
000002f0: c5bb b53e 1f00 953f 2166 9ebe 4842 80be
00000300: 28d5 143f 8570 cdbe e2ea 40bf c038 1cbe
00000310: 2a2b d0be 262e 97be a4a1 a43f 173d 2fbf
00000320: 6be4 573e 69ae aabe f4b1 00bf a8dd 41bc
00000330: 82cc 973f b464 b23b 8f8c 92bc 60a3 983e
00000340: fad3 0f3e 99b0 a9bf f3d2 1e3f 44a0 3cbe
00000350: a833 1ebe e5d4 893d 4a38 7dbf 5682 4c3f
00000360: cf6d 01bf 9476 72be 8d70 293f ffa4 0e3f
00000370: 0fd4 a03d 99b9 253c a37e 73be 4737 9e3f
00000380: 71af 4bbf a4bc 4ebf 9694 1fbf fa64 94bd
00000390: fb6a 4dbf 5813 f1be adf3 b13f 2c7c 693d
000003a0: 97e8 f3be 806b bbbe d7b2 1a3f cccb 82be
000003b0: 2b7f 033e a808 2bbe 3e44 a93f fe7b b1bf
0.55236816 0.12889218 -0.1155938 -0.79496515 0.99852395 -0.309547 -0.25849763 1.4373752
-0.39612305 -0.58995444 0.18052253 -0.32920173 -0.10375139 0.6393831 -1.820991 -0.097957045
0.13386543 -0.36615676 -0.48828074 1.2876536 -0.34283066 -0.25124392 1.0858958 0.307908
-0.72852343 0.16069092 0.6831718 -0.0365812 -0.039898902 -0.4443746 -0.7925274 0.011004977
0.096559204 -0.8013928 1.2535843 -0.27598086 -0.08296807 0.6872465 -0.45243344 -1.2678146
0.18614301 -0.4982262 -0.041050028 0.06736754 0.41223696 -0.65346056 0.20864436 0.2887502
-0.90671253 1.0715599 -0.10121526 0.046377644 0.3628454 0.12823905 -1.032792 0.015696958
0.38958424 0.009856481 -0.33701092 0.6638852 -0.51519626 -0.18128163 0.17336543 -1.2445114
0.68087345 -0.085690916 0.37341046 0.14080025 -0.05972815 -0.8401186 0.2359702 -0.11237802
0.3169724 -0.3134092 1.149189 0.22558925 0.24137045 0.27956653 -0.42295116 0.54600495
-0.13276619 0.35047525 -0.21035115 0.16967398 -0.8660209 -0.14186145 0.40253124 -0.22047101
-0.41958025 1.0202298 0.46719533 0.08723237 -0.18326148 0.0718026 0.20012644 -0.012784423
0.43138653 -0.26635456 -0.109495886 -0.8461352 0.06232944 0.25120482 -0.08477451 -0.061996333
0.9873083 0.10289456 0.50035673 0.14792146 0.40934235 -0.20572215 0.04626098 0.46576917
-0.20608786 -0.21728672 -0.5151724 0.1150911 -0.007427333 -0.05218149 0.28740734 0.89524174
0.2563087 -0.069518626 0.25605422 0.45872778 -0.3277704 -0.09664554 0.037032377 -0.4061325
-0.3434804 -0.078214325 -0.17460492 -0.15907004 -0.20676818 0.19446294 0.8936066 0.014710863
0.30892903 0.21947767 0.3590553 -0.70157737 -0.06832857 0.09079493 -0.2705217 -0.16511637
0.53741837 0.35424963 -0.1856194 -0.1873949 -0.15336058 0.67220634 0.21963857 0.15679988
-0.1634964 0.6121874 -0.6212298 -0.06583526 -0.022010993 -0.64658546 0.21400447 0.81342924
0.2357017 0.10959985 0.19350836 -0.40613526 0.36129707 0.2600543 -0.30120754 -0.07086271
1.107314 -0.44661662 -0.10592785 -0.30997193 -0.5333035 0.43705097 1.0177991 0.25072128
0.17349216 -0.14331892 -0.6360704 -0.15511288 0.20371257 -0.10903319 0.3698858 1.2260662
-0.67683434 0.048693318 -0.117529124 -0.7549087 0.3549482 1.1640662 -0.30937293 -0.2505057
0.5813775 -0.40124908 -0.753584 -0.15256023 -0.40657932 -0.29527396 1.2861829 -0.6845259
0.21083228 -0.3333619 -0.50271535 -0.011832632 1.1859286 0.0054441337 -0.01788929 0.29812145
0.14045706 -1.3257018 0.6204063 -0.18420511 -0.15449393 0.067300595 -0.98914015 0.79886377
-0.5055818 -0.23678046 0.66187364 0.55720514 0.07852947 0.010115051 -0.23778777 1.2360619
-0.7956458 -0.8075659 -0.623361 -0.07245822 -0.80241364 -0.4708507 1.3902489 0.057003185
-0.4763839 -0.36605453 0.6042914 -0.2554611 0.1284148 -0.16702521 1.3223951 -1.3865964

layers.1.bias f4 [16]
00000000: 7e6e b0be a73d efbe cf49 013d e01a 70bd
00000010: d1fc 3c3d f645 c43d c2d7 e03e 7dc7 9b3e
00000020: 9c3b 053f 0235 083f dbd8 9c3d 08a9 94be
00000030: 0832 6fbe 1de8 db3b 9666 aebe 9182 543e
-0.344593 -0.46726725 0.03156453 -0.05861938 0.046139542 0.095836565 0.4391461 0.30425635
0.5204408 0.53205884 0.076585494 -0.2903521 -0.23358929 0.0067110197 -0.34062642 0.20752932
